results/emotion_stage/supervised_pipeline/joint_best.pt (torch, 634101 bytes, 28 tensors)

stage1.encoder.emotion_queries f4 [1, 6, 128]
-0.025778955 0.020067088 0.029588081 0.03208308 -0.025605485 -0.022101438 -0.013719793 0.039838206
-0.005841526 0.017095456 0.02205517 0.0063741254 -0.014738297 0.03793138 0.013702157 -0.01761725
0.010481731 -0.018395888 -0.007353132 -0.022239543 -0.014802048 0.013266735 -0.014585541 -0.020481424
0.0039467947 -0.0034404553 0.0016265253 -0.026602801 0.02755009 0.029876176 0.0003140089 0.020749565
-0.0030138888 -0.025393566 -0.025829362 0.022096362 0.0013719322 0.046964124 0.014635266 -0.017876716
0.014438448 0.011059787 -0.019673653 0.019606903 -0.027835622 0.01929082 -0.0032019892 0.006685022
0.0338016 -0.015005525 -0.043118022 -0.03604852 0.018551845 -0.0048852134 -0.032014865 -0.0023341642
0.0319663 0.0027287977 -0.0021568958 0.03267922 0.0023406888 0.011674888 -0.030928971 -0.023838416
0.055748746 0.038067743 -0.01638045 0.0093904445 0.031002017 0.030743808 0.03456552 -0.025980912
-0.009312407 0.024554094 -0.0004822267 0.0011297079 0.012324353 0.039014652 0.015179815 -0.012469532
0.018742923 -0.0005460237 0.010450798 0.035416696 -0.01388662 -0.0105334865 0.037516892 0.013867948
0.02636829 -0.024776472 -0.0078258 0.0047932095 0.008468689 0.027617618 0.00019475962 0.0034960594
0.0013732546 -0.015143382 -0.02609353 0.023295661 -0.016941465 -0.03263742 0.017888641 -0.0042501055
0.032087505 -0.0288586 0.018725883 0.03480643 -0.009874436 -0.0017851397 0.02160932 -0.009204045
0.01290297 -0.017170046 0.013713246 0.017306158 0.030534321 0.031723205 -0.016549641 -0.023257967
-0.021003567 0.016634312 -0.007527672 -0.014431708 -0.005136561 0.04188342 -0.036212403 0.0053464524
0.0060736337 -0.018483348 -0.036892507 -0.00347398 -0.010596005 0.007676069 0.03947268 -0.0011224113
-0.0020911063 -0.0062176445 -0.010883224 -0.018465543 0.02296204 -0.012772386 -0.011812917 0.02573531
0.029070318 -0.003496083 -0.007068497 -0.02095503 -0.02410767 0.005851741 -0.041527692 -0.0009401257
-0.027440745 0.02259912 -0.016308209 -0.022598807 -0.007031093 -0.010566071 -0.005415481 0.012473832
-0.0014051168 0.024582542 0.029351393 -0.05732431 0.011696986 -0.01273864 0.013101533 0.0025479356
0.03716303 -0.038023565 0.013729582 -0.0046240552 0.023079593 -0.027214544 -0.001497965 -0.04533757
-0.0130104255 0.016160442 -0.0041352767 0.0037214526 0.017848805 -0.006046642 -0.01568106 0.060353838
-0.024417153 0.009583039 0.025090279 0.0044125426 -0.02938293 0.0008195968 0.012877217 -0.006632168
-0.032284744 -0.016397353 0.016455352 -0.0036693662 0.0055914344 -0.026698872 -0.036672473 -0.0056923036
0.0019023626 -0.030976197 0.012027873 0.025996303 -0.02147112 0.0052954475 -0.003984566 0.0036782164
-0.024749024 0.01339637 0.017130367 -0.017606605 -0.015984721 0.0032903901 -0.021144355 0.0063085463
0.011469235 -0.03476356 0.02070859 0.014811191 0.025605751 -0.009363668 -0.028890476 0.007963
-0.023955341 0.018249257 -0.020311879 0.035256036 -0.007974743 0.052470192 -0.019073594 0.016017456
-0.031164417 0.008856697 -0.042189274 -0.00060702005 0.0053613796 -0.015322435 0.009599693 0.0030384902
-0.009582029 0.015506821 0.0023646464 -0.016277054 0.007855552 0.03478694 -0.01526852 -0.008344121
-0.002016749 -0.027549377 0.0047397036 -0.024126645 0.033016264 -0.046039023 0.041648626 -0.018145105
00000000: 632e d3bc bc63 a43c b462 f23c 8c69 033d
00000010: 98c2 d1bc 130e b5bc fcc8 60bc 632d 233d
00000020: 466a bfbb c50b 8c3c 0bad b43c 0ade d03b
00000030: e678 71bc ef5d 1b3d 037f 603c 0d52 90bc
00000040: 91bb 2b3c f9b2 96bc 8bf2 f0bb b42f b6bc
00000050: 4a84 72bc b85c 593c 31f8 6ebc a9c8 a7bc
00000060: 1d54 813b 4379 61bb 2231 d53a 1eee d9bc
00000070: bab0 e13c e2be f43c 90a1 a439 fefa a93c
00000080: aa84 45bb 2b06 d0bc 1998 d3bc 6e03 b53c
00000090: 68d2 b33a 745d 403d c1c8 6f3c 3172 92bc
000000a0: 3d8f 6c3c 1c34 353c a42a a1bc a89e a03c
000000b0: 8807 e4bc c807 9e3c 77d8 51bb 070e db3b
000000c0: 8c73 0a3d bcd9 75bc 869c 30bd 9da7 13bd
000000d0: 0afa 973c 2414 a0bb 0522 03bd c7f8 18bb
000000e0: 18ef 023d a1d5 323b b55a 0dbb a5da 053d
000000f0: 3e66 193b 0848 3f3c c15e fdbc c848 c3bc
00000100: cc58 643d ecec 1b3d 4b30 86bc 61da 193c
00000110: f1f7 fd3c 70da fb3c 9394 0d3d ecd5 d4bc
00000120: 1193 18bc ab25 c93c 5fd3 fcb9 b512 943a
00000130: 15ec 493c d4cd 1f3d c2b4 783c 024d 4cbc
00000140: c28a 993c 0823 0fba d339 2b3c 1911 113d
00000150: b584 63bc a594 2cbc 50ab 193d 6436 633c
00000160: 5002 d83c 07f8 cabc c937 00bc 5b10 9d3b
00000170: 42c0 0a3c 583e e23c 6338 4c39 251e 653b
00000180: c7fe b33a f31b 78bc 19c2 d5bc 8bd6 be3c
00000190: d4c8 8abc d1ae 05bd 338b 923c 7844 8bbb
000001a0: 306e 033d df68 ecbc 0667 993c 3091 0e3d
000001b0: 63c8 21bc 59fb e9ba 0706 b13c 90cc 16bc
000001c0: fb66 533c 32a8 8cbc 86ad 603c a5c5 8d3c
000001d0: 1d23 fa3c 31f0 013d 1d93 87bc 7e87 bebc
000001e0: ac0f acbc ae44 883c b1aa f6bb f872 6cbc
000001f0: 9950 a8bb f38d 2b3d 7553 14bd 4b31 af3b
00000200: 5505 c73b 646a 97bc 991c 17bd b6ab 63bb
00000210: de9a 2dbc 8987 fb3b 1bae 213d e01d 93ba
00000220: f10a 09bb 62bd cbbb 8d4f 32bc 0d45 97bc
00000230: e31a bc3c 4543 51bc f78a 41bc dbd2 d23c
00000240: e024 ee3c 8a1e 65bb da9e e7bb e2a9 abbc
00000250: 737d c5bc f6bf bf3b f118 2abd c572 76ba
00000260: 6acb e0bc ca21 b93c cb98 85bc 2221 b9bc
00000270: 1565 e6bb 501d 2dbc 5974 b1bb 0b5f 4c3c
00000280: e52b b8ba 5461 c93c 5572 f03c e5cc 6abd
00000290: b7a4 3f3c bbb5 50bc d0a7 563c 44fb 263b
000002a0: 4338 183d 99be 1bbd 0af2 603c 6385 97bb
000002b0: 6a11 bd3c 09f1 debc 5d57 c4ba e3b3 39bd
000002c0: ae29 55bc e762 843c 3781 87bb 9de3 733b
000002d0: a837 923c e922 c6bb 9175 80bc 9635 773d
000002e0: 7b06 c8bc 2e02 1d3c 218a cd3c 1797 903b
000002f0: 78b4 f0bc 36da 563a f6fa 523c a852 d9bb
00000300: 023d 04bd be53 86bc 60cd 863c c079 70bb
00000310: 5a38 b73b 98b7 dabc e035 16bd 8186 babb
00000320: b258 f93a cbc1 fdbc 8e10 453c 33f6 d43c
00000330: 34e4 afbc 6f85 ad3b f690 82bb 3b0e 713b
00000340: 77be cabc 737c 5b3c fc54 8c3c ba3b 90bc
00000350: 64f2 82bc 96a3 573b ed36 adbc ecb7 ce3b
00000360: 75e9 3b3c 3c64 0ebd 10a5 a93c a3aa 723c
00000370: 27c3 d13c 126a 19bc b8ab ecbc 3e77 023c
00000380: fe3d c4bc 777f 953c 1965 a6bc a268 103d
00000390: 7fa8 02bc fcea 563d 3a40 9cbc 0a37 833c
000003a0: 854c ffbc ae1b 113c a9ce 2cbd 6d20 1fba
000003b0: 83ae af3b f30a 7bbc 0848 1d3c 6821 473b
000003c0: f1fd 1cbc 5210 7e3c 2ff8 1a3b 7557 85bc
000003d0: 93b4 003c c07c 0e3d d128 7abc c8b5 08bc
000003e0: 6f2b 04bb 3baf e1bc 844f 9b3b 3ea5 c5bc
000003f0: 103c 073d 6a93 3cbd c097 2a3d 0ba5 94bc

stage1.encoder.proj.weight f4 [128, 31]
0.11735785 0.13712052 -0.055384185 0.14927295 -0.05516455 0.020686602 -0.09502495 0.108643524
0.144643 -0.14120875 0.16354318 0.040861063 0.113678925 0.0019006678 0.116261736 0.0047817547
0.13697423 0.0048956643 -0.070927404 0.023389384 -0.10669236 0.0006495518 -0.04746295 0.14444773
-0.16706121 -0.10813299 -0.0562874 -0.12375282 0.024889508 -0.17647634 0.16030782 -0.15349506
0.14212517 0.034551896 -0.060446773 0.10865005 0.022078525 0.14239928 0.022511188 -0.0594786
0.046048667 -0.05312601 0.07116587 0.15126613 0.09211018 -0.07840903 0.10242651 0.021805447
0.087576024 -0.11574852 -0.17158864 -0.07414413 -0.1313627 0.16042505 0.064872734 0.061151024
0.043572668 0.0041535115 0.13156348 -0.14999515 0.021725625 -0.14308447 0.058270525 -0.06624205
0.051385995 -0.039380185 0.14699714 -0.10317185 -0.1057175 -0.10894807 0.16910467 0.06816391
0.15515874 -0.16439754 -0.17334457 -0.13352406 -0.1398206 0.052822705 0.041273013 0.15628609
-0.09982884 -0.112984106 0.10175708 -0.077431574 0.10628007 -0.0459491 0.10602237 -0.13607158
-0.08625881 0.056864057 0.03592706 -0.04018872 0.11376081 0.1233571 -0.1327604 -0.098493665
0.16388813 -0.06088545 -0.0626231 -0.17550564 -0.10021623 0.044349924 -0.025567614 -0.1264834
0.008364157 -0.11990855 -0.14343487 -0.11235416 -0.17057753 -0.10583435 0.18366832 0.041618943
0.054641996 -0.1631957 -0.122634776 -0.06697961 0.020482047 -0.15033019 -0.06974427 -0.10903651
0.0037355276 -0.055624865 -0.009503677 -0.09985398 -0.124160506 -0.106219366 -0.06349497 -0.14181069
0.15026961 -0.040184032 0.14620976 0.06398803 -0.15884614 0.115433216 -0.03839824 -0.057338964
-0.15028253 -0.16896462 0.048681635 -0.041669916 0.0771261 -0.14573543 0.13978818 -0.13763799
-0.03263623 0.036136404 0.09191196 0.14297985 0.16537955 -0.14039625 0.04200841 -0.07522142
-0.009958616 -0.14129378 0.18676093 -0.13888443 0.0877723 0.05552574 0.04779999 -0.10762135
0.15431505 0.03096877 0.032085445 -0.16140075 0.07148363 -0.03886971 -0.09252755 0.14758122
0.040546536 -0.11470103 -0.107135735 -0.029182337 0.09822614 -0.038126554 -0.10286642 -0.07092141
-0.1293793 0.07938337 0.15267697 -0.18271863 0.027911939 0.092241034 0.03214265 -0.074006274
0.097579174 0.091563 0.078526355 -0.019809572 -0.034747582 0.027560087 -0.023298448 -0.056644008
0.11141299 0.15954241 -0.019643834 -0.04293577 0.002542485 -0.011008498 0.04789505 0.051341485
-0.16439803 -0.06845085 0.15059255 0.079368316 -0.010585 -0.09145698 -0.0983032 -0.16961919
-0.063022755 0.056668635 0.118361935 0.08679096 -0.14659771 -0.10405606 -0.04678324 0.18260701
0.0014071376 -0.0503244 0.0721535 -0.07137 -0.114588045 0.1326096 -0.0766962 -0.027994564
-0.18823406 0.12502451 0.14194927 0.06853661 -0.123275846 -0.17741935 -0.14376397 0.14641078
0.099872574 0.15149555 0.08749227 0.041316498 -0.013905177 -0.13938713 -0.14779729 -0.17256033
0.06905895 -0.08370394 -0.031711083 -0.10737627 -0.040090363 -0.110254735 -0.1286615 0.07428158
-0.067787305 0.10708285 -0.06255249 -0.14102936 -0.04122121 -0.101479776 -0.06631147 -0.161695
00000000: 5059 f03d 5269 0c3e 87da 62bd 02db 183e
00000010: 39f4 61bd f376 a93c 719c c2bd 7f80 de3d
00000020: 4b1d 143e 0799 10be dd77 273e ee5d 273d
00000030: 7fd0 e83d d41f f93a a21a ee3d 44b0 9c3b
00000040: f942 0c3e cf6b a03b 6342 91bd 189b bf3c
00000050: 8681 dabd af46 2a3a 8368 42bd 1bea 133e
00000060: 1812 2bbe d474 ddbd 9e8d 66bd 1e72 fdbd
00000070: 15e5 cb3c 37b6 34be bc27 243e cf2d 1dbe
00000080: 4389 113e 4a86 0d3d 0997 77bd eb83 de3d
00000090: 06de b43c 1ed1 113e 6269 b83c d59f 73bd
000000a0: 879d 3c3d a99a 59bd 69bf 913d 82e5 1a3e
000000b0: 43a4 bc3d ea94 a0bd fdc4 d13d 56a1 b23c
000000c0: 0f5b b33d 8f0d edbd efb4 2fbe e1d8 97bd
000000d0: f283 06be 7746 243e ffdb 843d 7f79 7a3d
000000e0: 4179 323d 2e1a 883b 94b8 063e 5498 19be
000000f0: f0f9 b13c bc84 12be 13ad 6e3d e9a9 87bd
00000100: 1f7a 523d 1e4d 21bd 6b86 163e c34b d3bd
00000110: 6b82 d8bd 2a20 dfbd c629 2d3e 8599 8b3d
00000120: efe1 1e3e d457 28be 3d81 31be 88ba 08be
00000130: 222d 0fbe 9f5c 583d e40d 293d 7609 203e
00000140: 1073 ccbd 3664 e7bd 0466 d03d 7294 9ebd
00000150: 5ea9 d93d 2035 3cbd 4222 d93d 5956 0bbe
00000160: 75a8 b0bd 49ea 683d 4128 133d ed9c 24bd
00000170: 6dfb e83d a6a2 fc3d 58f2 07be 0cb7 c9bd
00000180: 4ad2 273e 0663 79bd 8a40 80bd c0b7 33be
00000190: 2b3e cdbd 44a8 353d 2c73 d1bc dd84 01be
000001a0: d109 093c 9d92 f5bd 97e0 12be f019 e6bd
000001b0: e0ab 2ebe aebf d8bd 8c13 3c3e a078 2a3d
000001c0: 49d0 5f3d c61c 27be f127 fbbd 9b2c 89bd
000001d0: f7c9 a73c 28f0 19be 15d6 8ebd 894e dfbd
000001e0: c1cf 743b e6d6 63bd 4fb5 1bbc 3e80 ccbd
000001f0: dd47 febd 8a89 d9bd a709 82bd d236 11be
00000200: 47e0 193e 0398 24bd 03b8 153e 280c 833d
00000210: 90a8 22be 4068 ec3d 7947 1dbd 43dc 6abd
00000220: aae3 19be 1005 2dbe 6566 473d 13ae 2abd
00000230: 4af4 9d3d ab3b 15be a224 0f3e f9f0 0cbe
00000240: 91ad 05bd c403 143d 563c bc3d 4f69 123e
00000250: 4259 293e 09c4 0fbe 0311 2c3d b00d 9abd
00000260: 7729 23bc 51af 10be 423e 3f3e b837 0ebe
00000270: f7c1 b33d f56e 633d ecc9 433d 9568 dcbd
00000280: c404 1e3e 38b2 fd3c 076c 033d 3d46 25be
00000290: 0266 923d d835 1fbd 167f bdbd 881f 173e
000002a0: 2014 263d 60e8 eabd fb69 dbbd cc0f efbc
000002b0: c92a c93d 972a 1cbd a1ab d2bd 3f3f 91bd
000002c0: 027c 04be c093 a23d 5a57 1c3e 981a 3bbe
000002d0: 94a7 e43c dee8 bc3d 03a8 033d 9a90 97bd
000002e0: 97d7 c73d 6285 bb3d 6dd2 a03d af47 a2bc
000002f0: 7b53 0ebd b1c5 e13c 63dc bebc 8c03 68bd
00000300: 7e2c e43d 165f 233e 1bec a0bc 6bdd 2fbd
00000310: d29f 263b fd5c 34bc 9a2d 443d 734b 523d
00000320: f557 28be f62f 8cbd ef34 1a3e db8b a23d
00000330: b56c 2dbc cc4d bbbd 3053 c9bd a7b0 2dbe
00000340: 1312 81bd 5f1d 683d be67 f23d 75bf b13d
00000350: b61d 16be 581b d5bd c89f 3fbd 55fd 3a3e
00000360: b46f b83a f520 4ebd 37c5 933d 6f2a 92bd
00000370: 23ad eabd d0ca 073e e612 9dbd db54 e5bc
00000380: 6ec0 40be 6d06 003e 265b 113e ec5c 8c3d
00000390: 0c78 fcbd 6bad 35be dd36 13be b5ec 153e
000003a0: fe89 cc3d a621 1b3e 262f b33d 7d3b 293d
000003b0: 8ad2 63bc 80bb 0ebe 2c58 17be a8b3 30be
000003c0: c76e 8d3d f96c abbd 7be3 01bd 17e8 dbbd
000003d0: cb35 24bd 3ccd e1bd d7bf 03be f120 983d
000003e0: 12d4 8abd 414e db3d 851b 80bd 006a 10be
000003f0: 92d7 28bd a1d4 cfbd 4fce 87bd 6093 25be

stage1.encoder.proj.bias f4 [128]
-0.09597129 0.028564297 0.032617733 0.08735896 -0.048436407 -0.022884611 -0.14931041 0.09742489
0.14614065 0.07426461 0.09719759 0.11071966 0.16292235 0.041211776 0.07762876 0.047765356
-0.08762133 0.06605498 0.054010287 -0.11159969 -0.06812295 -0.105755076 -0.10807163 0.11585257
0.15646684 -0.025557438 0.07487203 -0.044191282 0.058503978 -0.018914446 -0.08896725 -0.060045723
0.17164862 0.042271797 -0.0993945 0.04264456 -0.18618345 0.01832473 0.12489068 0.044464316
0.039546426 -0.15630016 -0.018300151 0.11794797 -0.15018956 -0.07899785 0.10227856 0.0524923
0.07452038 -0.16482088 0.1143307 -0.042188216 0.02416001 0.13656642 -0.17128158 0.05726939
-0.16392025 0.12854075 0.048562452 0.024168737 -0.0765426 0.062316567 -0.10389648 0.024087517
0.13997427 -0.15470585 -0.038640082 0.03689863 0.029012773 -0.006254855 0.15178367 -0.052621536
0.04971581 0.08129872 -0.037781615 0.106537715 0.10991189 0.060636595 -0.043236263 0.14947614
-0.09742735 0.05333374 0.048363887 0.11372926 -0.14214276 0.012513972 -0.087427415 0.094750114
0.07368506 -0.15668961 0.0022912475 0.037055384 0.080639124 0.1523297 0.0884303 0.032729626
0.100601085 -0.17733169 0.1054708 -0.020882485 0.10149021 0.047762815 0.0019298985 0.1113331
-0.08921697 0.029972792 0.092375755 -0.07149215 0.06786858 -0.17812662 -0.094248444 0.067676306
0.10151381 -0.1802454 0.065525316 0.0005628875 0.18759173 -0.18785271 -0.03299834 -0.110176
-0.085470654 -0.030217914 -0.15098713 0.13506943 -0.058232803 0.06827199 -0.08625259 -0.012121158
00000000: 988c c4bd acff e93c 2c9a 053d 41e9 b23d
00000010: 4165 46bd 8278 bbbc d4e4 18be b386 c73d
00000020: e5a5 153e 0b18 983d 880f c73d fdc0 e23d
00000030: 1ed5 263e aecd 283d d4fb 9e3d 9ba5 433d
00000040: d072 b3bd d547 873d e439 5d3d 618e e4bd
00000050: 0c84 8bbd 1e96 d8bd a954 ddbd 1d44 ed3d
00000060: d838 203e d55d d1bc 8256 993d eb01 35bd
00000070: dea1 6f3d 78f2 9abc 7634 b6bd 81f2 75bd
00000080: a8c4 2f3e 3125 2d3d 588f cbbd 10ac 2e3d
00000090: e0a6 3ebe bf1d 963c afc6 ff3d 3720 363d
000000a0: 6ffb 213d 260d 20be 33ea 95bc b58e f13d
000000b0: 4bcb 19be a0c9 a1bd 6c77 d13d 2a02 573d
000000c0: 249e 983d cec6 28be 3726 ea3d 8dcd 2cbd
000000d0: 37eb c53c 11d8 0b3e 7064 2fbe 4f93 6a3d
000000e0: b6da 27be 30a0 033e 6ce9 463d 84fd c53c
000000f0: 5ec2 9cbd a83f 7f3d adc7 d4bd 2f53 c53c
00000100: 6a55 0f3e 366b 1ebe 1045 1ebd 0523 173d
00000110: 32ac ed3c 87f5 ccbb 2e6d 1b3e ae89 57bd
00000120: cea2 4b3d f17f a63d e5c0 1abd 7230 da3d
00000130: 7c19 e13d 145e 783d 8218 31bd 4610 193e
00000140: fe87 c7bd 7b74 5a3d 3619 463d e3ea e83d
00000150: df8d 11be 6707 4d3c 250d b3bd 590c c23d
00000160: 31e8 963d 3e73 20be c128 163b 63c7 173d
00000170: 2026 a53d 51fc 1b3e f21a b53d 800f 063d
00000180: f107 ce3d 7096 35be 1301 d83d bf11 abbc
00000190: 19da cf3d f1a2 433d a6f4 fc3a 9c02 e43d
000001a0: 63b7 b6bd 8089 f53c 802f bd3d 7a6a 92bd
000001b0: affe 8a3d d366 36be 5405 c1bd e099 8a3d
000001c0: 79e6 cf3d 4092 38be 2332 863d be8e 133a
000001d0: 0c18 403e 765c 40be 4429 07bd f4a3 e1bd
000001e0: 3d0b afbd 8f8b f7bc 5f9c 1abe a44f 0a3e
000001f0: 8585 6ebd 2fd2 8b3d 33a5 b0bd d297 46bc

stage1.encoder.norm_kv.weight f4 [128]
1.0126631 1.0305048 1.0179927 1.0291737 1.0175805 1.0459286 1.0134456 1.0336732
1.0096363 1.0062675 1.0137736 1.0168818 1.0093852 1.0132445 1.0004264 1.010506
1.012522 1.0079803 1.0035422 1.0107471 1.014249 1.0025831 1.0027431 1.0040826
0.99830526 1.0118771 1.0049604 1.0058196 1.0055325 1.00421 1.0028616 1.0014824
1.0048057 0.9935138 1.0109957 1.0021586 0.9952668 1.0111156 1.0094584 1.0117786
1.0054452 0.99820334 1.006239 1.0058129 1.0108284 0.9987433 0.994706 1.0208691
1.0031224 1.0006995 1.0030504 1.0098112 1.0033779 0.99656343 0.99871033 1.0138208
1.01395 0.9991968 1.0237294 0.9992088 1.0109324 0.9990842 1.0159475 0.99658835
1.0094014 1.011172 1.0077962 1.0083103 1.0124944 1.0086643 0.99874884 1.0045011
0.9946037 1.0054572 1.003561 1.00483 1.0031748 1.0037024 1.0036979 0.9998606
1.0055323 1.0076623 1.0019178 0.9955765 1.0068676 0.99839467 0.9990069 0.99842465
0.9988175 1.0005012 1.013744 1.00899 1.0130217 1.011575 1.0093596 1.0016173
1.0001622 1.0058182 0.99738985 1.0118003 1.0150511 1.0011524 0.9997512 1.0042888
1.012554 1.0054457 1.009398 1.0110985 1.0130398 0.9952055 1.0008777 0.9995029
1.0047916 1.0080351 1.0026138 0.9985359 0.99037766 1.005583 1.0034381 1.0155177
0.9974912 0.99473906 0.9900396 1.0141132 0.9981336 1.0046711 1.0023996 1.0048788
00000000: f29e 813f 95e7 833f 964d 823f f7bb 833f
00000010: 1440 823f fde0 853f 96b8 813f 674f 843f
00000020: c33b 813f 60cd 803f 55c3 813f 2f29 823f
00000030: 8933 813f ffb1 813f f90d 803f 4358 813f
00000040: 529a 813f 8005 813f 1274 803f 2960 813f
00000050: e9d2 813f a554 803f e359 803f c785 803f
00000060: ef90 7f3f 3085 813f 8ba2 803f b2be 803f
00000070: 4ab5 803f f489 803f c55d 803f 9330 803f
00000080: 799d 803f ec56 7e3f 4f68 813f bc46 803f
00000090: cec9 7e3f 3c6c 813f ef35 813f f681 813f
000000a0: 6eb2 803f 418a 7f3f 71cc 803f 7abe 803f
000000b0: d362 813f a4ad 7f3f 0da5 7e3f d7ab 823f
000000c0: 5166 803f ec16 803f f563 803f 7e41 813f
000000d0: b06e 803f c81e 7f3f 7bab 7f3f e1c4 813f
000000e0: 1dc9 813f 5dcb 7f3f 9109 833f 26cc 7f3f
000000f0: 3c66 813f fbc3 7f3f 910a 823f 6a20 7f3f
00000100: 1134 813f 166e 813f 77ff 803f 5010 813f
00000110: 6b99 813f e91b 813f 01ae 7f3f 7e93 803f
00000120: 599e 7e3f d2b2 803f b074 803f 459e 803f
00000130: 0868 803f 5279 803f 2c79 803f ddf6 7f3f
00000140: 48b5 803f 14fb 803f d83e 803f 1ade 7e3f
00000150: 0ae1 803f cb96 7f3f ebbe 7f3f c298 7f3f
00000160: 81b2 7f3f 6c10 803f 5dc2 813f 9626 813f
00000170: b2aa 813f 4a7b 813f b232 813f ff34 803f
00000180: 5105 803f a7be 803f f154 7f3f ac82 813f
00000190: 32ed 813f c325 803f b2ef 7f3f 898c 803f
000001a0: 5f9b 813f 72b2 803f f433 813f ad6b 813f
000001b0: 4aab 813f cac5 7e3f c31c 803f 6cdf 7f3f
000001c0: 039d 803f 4b07 813f a655 803f 0ca0 7f3f
000001d0: 6489 7d3f f2b6 803f a970 803f 7cfc 813f
000001e0: 955b 7f3f 38a7 7e3f 3c73 7d3f 76ce 813f
000001f0: af85 7f3f 1099 803f a14e 803f de9f 803f

stage1.encoder.norm_kv.bias f4 [128]
0.0048333067 -0.0020850473 -0.0023981265 0.0052400306 0.0016964172 0.0034571316 -0.0031729678 -0.003430394
0.0020230282 0.0052001043 0.00029875795 0.0028672281 0.0024685932 -0.0036154762 0.007004582 -0.0005541557
0.0015951179 0.0011243771 -0.006579411 0.004526708 -0.0022603134 -0.00012466508 -0.00352822 -0.0026939244
0.0020845935 -0.0076930304 -0.001432322 0.0027163976 0.0029945697 -0.00534869 0.006540109 0.0052928342
0.0028004455 0.0030188465 -0.002946455 0.0016726578 -0.0029306842 0.00741551 0.0028280825 0.0140437735
0.002598301 0.004221133 0.0094856 -0.0049356897 -0.011654232 -0.005660975 -0.0028371122 0.003315399
0.0044056475 -0.0031140065 -0.0021089427 0.0062486962 -0.0017826873 -0.0013282221 -0.0046625277 0.004166527
-5.316071e-05 0.002152444 -0.001336893 0.00052637624 -0.0013678358 0.0030515974 -0.0017100923 -0.0026786746
-0.007015151 0.0024970423 0.002797918 0.0036794997 -0.0018008355 -0.0024698568 -0.0009087106 -0.00012828081
0.0054923007 -0.00078764197 0.00794294 -0.0044380156 -0.0018852731 -0.0018341771 -0.0014006683 0.00023726988
-3.7470352e-05 -0.00070849987 -0.0012315087 -0.009878913 -0.004023104 0.00091922865 0.0052908696 -0.002855367
0.0033345737 0.00085179467 0.015606864 -0.009380749 -0.0061779204 -0.0024539041 0.0026780956 0.0036425672
0.0014265575 -0.0015734916 -0.008698125 0.0049751494 0.001802966 -0.0016511787 -0.00084079884 -0.00063692906
0.006747154 -0.0009111342 -0.0005509411 0.0020991918 -0.0018357596 0.00074385706 -0.00048301034 -0.0008547669
-0.008837282 0.0058093206 0.0065960228 -0.006734457 0.003555992 0.007063931 0.003862862 -0.00092916697
0.0037880475 0.00017838816 0.0014087133 0.0004071073 -0.0023477434 -0.0047837324 -0.0006788956 -0.00041079006
00000000: b760 9e3b 4aa5 08bb e329 1dbb 90b4 ab3b
00000010: 515a de3a 0b91 623b 91f1 4fbb 76d0 60bb
00000020: c894 043b a365 aa3b 9da2 9c39 1be8 3b3b
00000030: 1fc8 213b a0f1 6cbb b186 e53b c244 11ba
00000040: 4613 d13a d65f 933a 1a98 d7bb c754 943b
00000050: c421 14bb 87b8 02b9 b639 67bb 8d8c 30bb
00000060: ad9d 083b d115 fcbb c0bc bbba 9705 323b
00000070: 8b40 443b 1044 afbb 694e d63b 836f ad3b
00000080: ae87 373b d7d7 453b 5019 41bb 153d db3a
00000090: b910 40bb cefd f23b 5a57 393b db17 663c
000000a0: 4248 2a3b 6e51 8a3b 7d69 1b3c 91bb a1bb
000000b0: 64f1 3ebc b37f b9bb d8ee 39bb 2a47 593b
000000c0: 405d 903b 5c14 4cbb 3036 0abb ddc1 cc3b
000000d0: 0fa9 e9ba bd17 aeba 1ec8 98bb 5d87 883b
000000e0: e1f8 5eb8 0510 0d3b af3a afba 83fc 093a
000000f0: f448 b3ba 4ffd 473b 2d25 e0ba b48c 2fbb
00000100: 5adf e5bb 6ba5 233b 465d 373b c323 713b
00000110: 030a ecba 52dd 21bb 8936 6eba 1e83 06b9
00000120: c2f8 b33b c279 4eba 1b23 023c c66c 91bb
00000130: 451b f7ba c568 f0ba a196 b7ba a6cb 7839
00000140: 7c29 1db8 9fba 39ba 936a a1ba 2adb 21bc
00000150: 3ed4 83bb 64f8 703a 085f ad3b 1c21 3bbb
00000160: dd88 5a3b f94a 5f3a efb3 7f3c b7b1 19bc
00000170: 2770 cabb aed1 20bb fd82 2f3b 23b8 6e3b
00000180: 54fb ba3a 9e3d ceba 9582 0ebc 9406 a33b
00000190: 8051 ec3a 5d6c d8ba 0e69 5cba 96f7 26ba
000001a0: 3b17 dd3b 2ed9 6eba 086d 10ba 9892 093b
000001b0: df9d f0ba 67ff 423a 8d3c fdb9 7012 60ba
000001c0: 3fca 10bc 1d5c be3b 7323 d83b b8ac dcbb
000001d0: a50b 693b 8c78 e73b 1228 7d3b 5793 73ba
000001e0: e440 783b b50d 3b39 93a4 b83a 0471 d539
000001f0: 99dc 19bb dbc0 9cbb eaf7 31ba 4f5f d7b9

stage1.encoder.norm_q.weight f4 [128]
1.0155244 1.0104653 1.0098054 1.0090295 1.0123675 1.0078264 1.0119172 1.0160122
1.0095003 1.0060499 1.0137956 0.9996734 1.0081955 1.0138476 1.0103166 1.0223045
1.0132734 1.005694 1.0175261 1.0188005 1.0120306 0.9878784 1.0056815 1.0182072
1.0145139 1.0096221 1.0054522 1.011566 1.0158148 1.010253 0.98468876 1.0242971
1.0182558 1.0144745 1.01498 1.0159333 0.99806243 1.0203478 1.0078672 1.0112487
1.0095941 1.0046973 1.0165803 1.0196005 1.0138764 1.0137149 1.0031681 1.0182683
1.0190692 1.0144897 1.0221815 1.0136733 1.0172616 1.004815 1.0168291 1.0214497
1.0189561 1.0092247 1.0132046 1.0122858 0.999536 1.0169035 1.0080158 1.0143014
1.0149438 1.0205071 0.9995341 0.98491824 1.0090487 1.0186669 1.0144701 1.0144044
0.99780035 1.0114201 0.9968025 1.0043591 1.0068125 1.0151263 1.0035928 1.0084445
1.0135555 1.0131676 0.991541 1.0100697 1.0045489 1.0083065 1.0192785 0.9949878
1.0146298 1.0082504 1.0076715 1.0023466 1.0131893 1.004327 1.0118747 1.0178027
0.99117124 1.0059319 1.0081508 1.0188649 1.0121331 1.0157304 1.0105106 1.0140864
1.0092014 1.0128556 1.0133547 1.0167108 1.0114911 1.0016664 1.0136886 1.0049891
1.0201305 1.0412438 1.0160465 1.0315533 1.0125501 1.0134753 1.006549 1.0236179
1.0204357 1.0042828 1.0036062 1.0207827 1.0103347 1.0099543 1.0095922 1.0068983
00000000: b4fc 813f ed56 813f 4e41 813f e127 813f
00000010: 4295 813f 7500 813f 8186 813f b00c 823f
00000020: 4e37 813f 3ec6 803f 0ec4 813f 99ea 7f3f
00000030: 8d0c 813f c2c5 813f 0e52 813f e0da 823f
00000040: f1b2 813f 95ba 803f 4c3e 823f 0e68 823f
00000050: 388a 813f 99e5 7c3f 2cba 803f 9d54 823f
00000060: 97db 813f 4c3b 813f a8b2 803f ff7a 813f
00000070: 3806 823f f84f 813f 9014 7c3f 2b1c 833f
00000080: 3556 823f 4dda 813f ddea 813f 1a0a 823f
00000090: 0581 7f3f c29a 823f cb01 813f 9970 813f
000000a0: 613a 813f ec99 803f 4e1f 823f 4582 823f
000000b0: b4c6 813f 69c1 813f d067 803f 9e56 823f
000000c0: dc70 823f ccda 813f d8d6 823f 0cc0 813f
000000d0: a135 823f c79d 803f 7527 823f ddbe 823f
000000e0: 276d 823f 462e 813f b0b0 813f 9592 813f
000000f0: 97e1 7f3f e529 823f a906 813f a1d4 813f
00000100: aee9 813f fa9f 823f 77e1 7f3f 9a23 7c3f
00000110: 8228 813f ad63 823f 28da 813f 01d8 813f
00000120: d86f 7f3f 3776 813f 732e 7f3f d78e 803f
00000130: 3bdf 803f a9ef 813f bb75 803f b614 813f
00000140: 30bc 813f 7aaf 813f a2d5 7d3f f749 813f
00000150: 0f95 803f 3010 813f b877 823f 85b7 7e3f
00000160: 64df 813f 590e 813f 61fb 803f e54c 803f
00000170: 30b0 813f ca8d 803f 1c85 813f 5c47 823f
00000180: 66bd 7d3f 60c2 803f 160b 813f 2a6a 823f
00000190: 948d 813f 7403 823f 6958 813f 95cd 813f
000001a0: 832d 813f 41a5 813f 9bb5 813f 9423 823f
000001b0: 8a78 813f 9b36 803f 8cc0 813f 7ca3 803f
000001c0: a393 823f 7a47 853f d00d 823f f009 843f
000001d0: 3e9b 813f 8fb9 813f 99d6 803f e905 833f
000001e0: a39d 823f 578c 803f 2b76 803f 02a9 823f
000001f0: a652 813f 2f46 813f 513a 813f 0be2 803f

stage1.encoder.norm_q.bias f4 [128]
0.0045631505 -0.017859753 -7.9576304e-05 -0.0068023265 0.002779131 0.010392293 0.007655006 -0.008118517
0.0076276977 -0.0013287304 0.00038494094 -0.005442525 0.00503999 -0.01153357 -0.0016389393 0.01728384
-0.007072516 0.00828978 -0.022015752 -0.0030197965 -0.0028746577 0.00844195 -0.00018700222 -0.0021849107
-0.010917112 0.010815061 -0.01160184 0.009789243 -0.004381516 -0.0050495057 -0.018915411 0.00017053
0.008388114 0.012041692 0.008364467 -0.014105763 0.0028286765 0.0044713924 0.004566781 0.015150111
0.012953897 -0.009602247 0.0058906544 0.0042315642 0.0048625413 -0.016564585 0.0035819262 -0.008885624
0.0012875694 0.008318665 0.0010938885 0.01046807 -0.006425052 0.0055682193 0.016718796 0.013611979
-0.0059757056 0.010895647 0.016216792 -0.002066985 0.010338363 -0.008414017 0.006139122 -0.0007654789
0.0001979865 -0.0008682499 0.015423357 -0.013661747 -0.005444081 0.007505671 -0.011277961 -0.0018214935
0.023107342 -0.000982089 0.0040648663 0.00781773 0.004383189 0.0053572985 -0.010620788 -0.0052697985
-0.018305307 0.005800562 4.4732216e-05 -0.0052700806 -0.01885665 -0.010011108 -0.00046526172 -0.0024848646
0.0047362787 0.005673997 0.0067614373 0.004508216 -0.0059438166 -0.014431136 -0.015601836 -0.01939292
-0.0047212825 0.0055175363 0.008439888 0.0075722095 -0.0033189876 0.0042079394 -0.010488189 0.013177343
-0.00765403 0.0051639453 -0.004250994 -0.0053795213 -0.009272986 -0.0019495272 -0.008687944 -0.0076446347
-0.013863447 0.0029587026 -0.009833831 -0.014235564 -0.0012751508 -0.0034103207 -0.014609062 0.0053605135
0.009833443 -0.008959534 0.0015112505 -0.003439256 0.0073297857 -0.007684895 0.008218447 -0.0013283711
00000000: 7b86 953b 9e4e 92bc 34e2 a6b8 0de6 debb
00000010: 1522 363b 7044 2a3c d8d6 fa3b 8703 05bc
00000020: c4f1 f93b cb28 aeba e6d1 c939 3557 b2bb
00000030: 8026 a53b 4cf7 3cbc add1 d6ba d796 8d3c
00000040: 90c0 e7bb dbd1 073c 615a b4bc c7e7 45bb
00000050: c164 3cbb 1b50 0a3c 0716 44b9 b830 0fbb
00000060: b0dd 32bc a731 313c a515 3ebc 1063 203c
00000070: d292 8fbb 5376 a5bb 7ef4 9abc 4cd0 3239
00000080: 4d6e 093c 844a 453c 1e0b 093c dc1b 67bc
00000090: 5161 393b c284 923b f0a4 953b 2c38 783c
000000a0: 953c 543c be52 1dbc 6406 c13b efa8 8a3b
000000b0: f455 9f3b 74b2 87bc c0be 6a3b 0295 11bc
000000c0: a9c3 a83a 034b 083c cf60 8f3a 4582 2b3c
000000d0: 3e89 d2bb 9c75 b63b dbf5 883c c704 5f3c
000000e0: dacf c3bb a883 323c 14d9 843c 4176 07bb
000000f0: 3d62 293c f2da 09bc b02a c93b 6baa 48ba
00000100: 999a 4f39 449b 63ba 3fb2 7c3c 85d5 5fbc
00000110: 4364 b2bb 22f2 f53b 32c7 38bc 2ebf eeba
00000120: 9c4b bd3c 70b9 80ba 9232 853b f015 003c
00000130: dba0 8f3b 478c af3b d002 2ebc 46ae acbb
00000140: 03f5 95bc a412 be3b da9e 3b38 a4b0 acbb
00000150: 4379 9abc a105 24bc 5fee f3b9 1cd9 22bb
00000160: c932 9b3b f0ec b93b 0c8f dd3b a8b9 933b
00000170: 59c4 c2bb 9270 6cbc d89e 7fbc e7dd 9ebc
00000180: fdb4 9abb 73cc b43b 7547 0a3c 4c20 f83b
00000190: 5f83 59bb c1e2 893b a7d6 2bbc c8e5 573c
000001a0: a8ce fabb 5036 a93b ec4b 8bbb b246 b0bb
000001b0: b9ed 17bc 4787 ffba e157 0ebc d87f fabb
000001c0: 8323 63bc cbe6 413b 141e 21bc 483c 69bc
000001d0: f622 a7ba b07f 5fbb d95a 6fbc 3fa7 af3b
000001e0: 731c 213c 02cb 12bc 2715 c63a 2465 61bb
000001f0: b32e f03b 92d1 fbbb aaa6 063c bd1c aeba

stage1.encoder.cross_attn.in_proj_weight f4 [384, 128]
-0.012116622 0.11317233 -0.039578762 0.09530429 0.04374379 0.08408276 -0.005960003 0.07770806
-0.0006280615 -0.0079569435 -0.0127840545 0.037696175 0.10386303 0.08707704 -0.053279553 -0.04609129
0.05872094 -0.044331066 -0.03720323 0.019688535 -0.066829324 -0.074228115 0.079769194 -0.1000622
-0.07611065 0.047133133 -0.016644241 0.05164987 -0.013158414 0.00772323 -0.027200947 0.04038328
0.02128107 -0.020559795 0.071631104 -0.06435217 -0.030845027 0.014377201 0.05859201 -0.039282367
0.012172295 -0.100909926 0.049954467 0.06611597 -0.09390408 -0.086095795 -0.005525046 0.09949136
0.041867986 0.07938978 -0.09475542 0.0735705 0.103258386 -0.082316235 0.024857862 -0.021563148
0.10956695 -0.053319313 -0.10766656 -0.08266817 0.08974304 0.034284603 -0.10268495 -0.0933505
0.061304785 -0.04978229 -0.073910154 -0.050213363 -0.039094295 -0.06559378 -0.04489522 0.004270015
0.019425005 0.09202915 -0.09138928 -0.029245974 -0.032205686 -0.055316344 0.035939682 -0.05328479
-0.039668415 -0.08997316 -0.03340989 0.01068804 -0.0676848 -0.019871652 -0.060058422 0.009585497
0.05027086 -0.0689301 -0.046047796 -0.0071049775 -0.04735797 -0.03979397 0.053920224 -0.015157602
0.036367998 -0.00296583 0.0029491405 -0.067335784 -0.0024918977 0.09762553 0.10123173 0.07678648
-0.02998727 -0.0028841838 0.09889885 -0.017878655 0.024796598 0.0015200928 0.07464937 -0.05406713
0.023569526 -0.09695577 -0.02357702 0.043207437 0.012846062 0.1037793 -0.08664748 0.041479852
0.002349199 0.098383784 0.091496564 0.08202538 -0.07500671 0.110053554 -0.074397154 -0.0649171
0.069954515 -0.010397354 0.04275185 0.08465024 -0.010119119 0.03314638 0.010845656 0.06413665
0.062859975 0.012701723 -0.090057544 0.025305456 0.072292455 0.0011444886 0.044644166 0.035395294
-0.05413577 -0.04673375 -0.01562768 -0.08313193 0.005133261 -0.03548076 -0.07803103 0.021985585
0.018050205 0.047965385 -0.010427039 -0.02816857 -0.026271738 -0.095270015 0.0052732457 0.04764541
0.013424473 0.019619878 0.09953309 0.07947931 0.107291706 0.08049248 0.050209984 0.0042475318
-0.1146806 0.0064763394 0.070305735 -0.006742796 0.064405285 -0.09081149 0.011409179 0.100350484
-0.10523977 -0.008364977 0.056852557 -0.09511167 -0.047311638 -0.0538928 0.08012957 -0.007430722
-0.0033675227 0.0850938 0.03382872 -0.040478 0.03792679 -0.055971283 0.0977903 -0.02161274
0.08715358 -0.042906735 0.06604154 0.10601628 -0.045397293 -0.015989823 -0.061960455 0.0671221
-0.032996327 0.07496287 -0.076835796 -0.029112833 -0.02409396 0.079501264 0.051444244 -0.0052168346
0.04740235 -0.08565274 -0.020352837 0.0868827 -0.015491072 -0.056087885 -0.057986923 0.095465645
0.001937742 0.030556414 -0.038830478 0.041178923 -0.009712585 0.09722904 0.06368363 -0.10218763
0.09293127 -0.062261693 -0.029995127 0.007802499 -0.07137226 0.003950149 -0.065574504 -0.02523962
-0.008681832 -0.010747208 0.02848217 -0.04338279 0.026171481 0.012378045 -0.047731116 -0.08813523
0.04486454 -0.07724108 0.00371372 0.058603063 0.09382094 -0.063364126 0.0974505 -0.046249215
-0.04913362 0.0052075814 -0.03864135 -0.05313424 0.038912535 0.08185968 0.0743748 0.04901399
00000000: cc84 46bc e5c6 e73d 571d 22bd e52e c33d
00000010: b02c 333d 9533 ac3d 214c c3bb 6725 9f3d
00000020: 7ea4 24ba d75d 02bc 3674 51bc 4e67 1a3d
00000030: 24b6 d43d 7255 b23d a93b 5abd 38ca 3cbd
00000040: 5e85 703d 7e94 35bd 6a62 18bd da49 a13c
00000050: d0dd 88bd e904 98bd 085e a33d 69ed ccbd
00000060: e7df 9bbd ac0e 413d 8159 88bc d08e 533d
00000070: 6396 57bc 2613 fd3b 85d4 debc f068 253d
00000080: a355 ae3c 046d a8bc 54b3 923d 12cb 83bd
00000090: b6ae fcbc 5a8e 6b3c 2dfe 6f3d 8ce6 20bd
000000a0: 4e6e 473c dda9 cebd 0e9d 4c3d cf67 873d
000000b0: c850 c0bd fe52 b0bd 720b b5bb 20c2 cb3d
000000c0: c47d 2b3d 1c97 a23d 210f c2bd 21ac 963d
000000d0: 2279 d33d 6a95 a8bd b7a2 cb3c 33a5 b0bc
000000e0: a364 e03d 5a65 5abd 4980 dcbd ee4d a9bd
000000f0: 33cb b73d 036e 0c3d 7d4c d2bd 8c2e bfbd
00000100: ba1a 7b3d 84e8 4bbd 355e 97bd 87ac 4dbd
00000110: 5721 20bd 0856 86bd 0de4 37bd 7beb 8b3b
00000120: 3021 9f3c c779 bc3d 4e2a bbbd 4195 efbc
00000130: 1cea 03bd 6493 62bd 7d35 133d 2741 5abd
00000140: 597b 22bd d943 b8bd cfd8 08bd e41c 2f3c
00000150: 549e 8abd e0c9 a2bc d2ff 75bd 7d0c 1d3c
00000160: d1e8 4d3d 392b 8dbd 9d9c 3cbd dfd0 e8bb
00000170: 6efa 41bd 00ff 22bd 74db 5c3d 9757 78bc
00000180: 9cf6 143d 5f5e 42bb 5e46 413b 58e7 89bd
00000190: 1b4f 23bb e5ef c73d 9552 cf3d 3b42 9d3d
000001a0: dda7 f5bc 9304 3dbb 7b8b ca3d 4276 92bc
000001b0: 3c22 cb3c da3d c73a c5e1 983d 7f75 5dbd
000001c0: e114 c13c bf90 c6bd 9824 c1bc 48fa 303d
000001d0: 4a78 523c 3e8a d43d 3c74 b1bd c7e6 293d
000001e0: 05f5 193b 707d c93d 8d62 bb3d ecfc a73d
000001f0: 1e9d 99bd c263 e13d 895d 98bd 42f3 84bd
00000200: 5044 8f3d aa59 2abc 901c 2f3d 1b5d ad3d
00000210: a9ca 25bc 80c4 073d fab1 313c 135a 833d
00000220: bbbc 803d e31a 503c 1770 b8bd 634d cf3c
00000230: 110e 943d aa02 963a cddc 363d a8fa 103d
00000240: 78bd 5dbd e36b 3fbd 9f05 80bc 1341 aabd
00000250: ea34 a83b 4654 11bd bcce 9fbd 1d1b b43c
00000260: 06de 933c 5a77 443d 2cd6 2abc c6c1 e6bc
00000270: d437 d7bc ed1c c3bd 31cb ac3b d527 433d
00000280: 52f2 5b3c deb9 a03c 01d8 cb3d 0cc6 a23d
00000290: c1bb db3d 3ed9 a43d fca8 4d3d e12e 8b3b
000002a0: aadd eabd 7937 d43b 74fc 8f3d acf2 dcbb
000002b0: ebe6 833d 60fb b9bd 91ed 3a3c 8e84 cd3d
000002c0: f387 d7bd 420d 09bc 3ade 683d e8c9 c2bd
000002d0: d9c9 41bd b2be 5cbd f91a a43d 6a7d f3bb
000002e0: a8b1 5cbb a945 ae3d fc8f 0a3d 42cc 25bd
000002f0: 1f59 1b3d 2542 65bd 4846 c83d 330d b1bc
00000300: 937d b23d f9be 2fbd c940 873d 101f d93d
00000310: 83f2 39bd 17fd 82bc 3fca 7dbd 5077 893d
00000320: 2827 07bd 2286 993d 165c 9dbd 097e eebc
00000330: b260 c5bc 8fd1 a23d 33b7 523d fbf1 aabb
00000340: f728 423d b46a afbd feba a6bc 8fef b13d
00000350: 44ce 7dbc 69bc 65bd b283 6dbd 7e83 c33d
00000360: d5fb fd3a 7251 fa3c b50c 1fbd 3bab 283d
00000370: 8921 1fbc 0520 c73d 906c 823d c047 d1bd
00000380: c052 be3d 1e06 7fbd 57b8 f5bc 1bac ff3b
00000390: 9f2b 92bd 4070 813b ed4b 86bd 52c3 cebc
000003a0: 3e3e 0ebc 0f15 30bc 7153 e93c 27b2 31bd
000003b0: 9365 d63c 49cd 4a3c b481 43bd 3e80 b4bd
000003c0: e1c3 373d 9230 9ebd e261 733b c409 703d
000003d0: 3125 c03d 0dc5 81bd 2194 c73d d16f 3dbd
000003e0: 5640 49bd 5ca4 aa3b 6446 1ebd 4aa3 59bd
000003f0: c062 1f3d 0ca6 a73d d151 983d e5c2 483d

stage1.encoder.cross_attn.in_proj_bias f4 [384]
0.00046391247 -0.00039198104 -0.017308043 0.0010746926 -0.0033587287 0.0106199235 -0.0015923327 -2.738053e-05
-0.0036845976 0.007699709 0.0041976734 0.021444038 0.015719255 0.0012684043 -0.009202279 0.006190973
-0.008814112 -0.012731532 0.00025643205 0.003803337 -6.7607776e-05 -0.0070971744 0.009038294 -0.005149072
0.004698643 -0.006459279 -0.0034687358 0.007788706 -0.0037734702 0.0050517726 0.007588683 0.004239127
-0.0043943077 -0.009192983 -0.0019549134 0.00871767 0.010270316 0.013490155 0.009169668 -0.015690193
0.0070550875 -0.015791647 -0.012438737 0.009223041 -0.009376106 0.013730868 -0.0073942845 0.0062136147
0.0044327136 0.0018947116 -0.014504943 -0.007680932 0.007336386 -0.00036819142 0.0038229728 -0.012492147
0.0050624004 -0.009011974 0.007461355 0.0021064517 -0.011653768 -0.015065913 -0.016392913 0.015911393
-0.022396673 0.01137861 0.017679878 -0.016533576 -0.0038943999 -0.009276257 0.021000402 -0.0070965583
-0.004636233 -0.008728675 -0.0016207198 0.01848843 -0.0044085677 -0.009124505 0.0075758845 0.024318675
0.0067259483 0.0051906677 -0.027662046 0.003939084 -0.011075873 -0.0030399102 -0.00043387568 -0.023170961
-0.019948622 0.008787814 -0.018345132 0.0056386334 0.012086051 0.0134685505 -0.015386405 0.012412184
0.0021738852 0.003598821 0.0033237964 -0.002186581 -0.0010096808 0.00042845105 0.005414638 0.0039689066
0.0012207491 -0.0005708603 0.0007408309 0.001852563 -0.0013467114 -0.0032379357 -0.0004470889 8.389913e-05
0.009144283 -0.00020875879 -0.0020262636 -0.00065053883 -0.0023100511 7.624665e-05 0.0020853714 -3.902181e-05
0.0019060841 0.0050414973 -0.00091603346 0.0058747334 8.8487905e-05 0.0024066712 -0.00053284125 0.004347389
-1.800454e-07 -1.0961755e-06 2.24013e-06 -1.0312077e-06 5.1534016e-07 -4.7958696e-07 9.604241e-09 1.2240816e-06
-6.5544594e-07 4.3148995e-07 -9.557975e-07 -7.3941993e-07 -1.5693746e-06 2.687087e-06 -9.883785e-07 1.7891169e-06
1.9841202e-06 6.534932e-07 2.2717604e-06 2.2844475e-07 4.2421993e-07 1.1281466e-06 -2.799475e-06 8.9392705e-07
1.2959712e-06 -1.3995095e-06 1.9481068e-07 3.0257425e-07 3.0913357e-06 -1.3102401e-06 -2.1118583e-06 3.022478e-06
-3.091604e-06 1.80346e-06 3.698488e-08 -2.666814e-06 -1.9319468e-06 -1.6590978e-06 -4.1218593e-07 -9.368531e-07
-2.085624e-06 1.0250913e-06 1.6059079e-07 6.375655e-08 1.4053849e-06 5.6537414e-07 2.3961134e-06 -5.4818514e-07
-2.2283577e-06 1.0832912e-06 1.4403628e-06 1.2387536e-06 -2.544063e-06 -8.6867e-08 -2.3905004e-06 1.3034389e-06
5.3172573e-07 1.6546304e-06 1.0821393e-06 1.5754655e-07 6.340889e-07 7.783692e-07 -7.0313956e-07 -1.3518667e-06
1.9442298e-07 4.1043566e-07 -1.3186033e-06 1.2755377e-06 -7.951438e-07 -1.0883972e-06 -1.5297912e-06 2.3240432e-06
-1.7617168e-07 1.3258982e-06 -2.8350752e-07 3.032344e-08 9.945409e-07 -1.12333765e-07 -1.8781276e-07 -5.4225293e-08
-3.9029916e-07 -1.3460256e-06 7.944226e-07 2.477974e-07 1.4847699e-06 1.1633098e-06 8.0943164e-07 9.868935e-07
-5.010399e-08 -1.3553414e-06 -7.67437e-08 9.561534e-07 3.5263545e-07 -1.0461658e-06 -1.7502686e-07 -2.408006e-06
3.3002152e-07 1.7830522e-06 1.241894e-06 1.0680311e-06 -2.2831621e-07 -1.65642e-06 5.1182224e-07 -9.228051e-07
-1.1295758e-06 -2.571934e-07 -7.064662e-07 1.5131399e-06 -4.1108618e-07 1.0360586e-06 1.818673e-06 -3.3168172e-07
6.3228185e-07 -9.502459e-07 1.3806418e-06 -3.399625e-07 -1.0974097e-06 -7.7049486e-07 9.99634e-07 -8.2118686e-07
-7.6146836e-07 6.077948e-07 6.5092365e-07 2.3421019e-07 1.8904939e-07 -1.07334756e-07 8.8453646e-07 1.7751101e-06
00000000: 4739 f339 ce82 cdb9 99c9 8dbc b3dc 8c3a
00000010: 1e1e 5cbb 30ff 2d3c d2b5 d0ba 3eaf e5b7
00000020: 4a79 71bb d74d fc3b a38c 893b 68ab af3c
00000030: abc5 803c 9640 a63a 28c5 16bc a5dd ca3b
00000040: 1169 10bc ea97 50bc ba71 8639 6841 793b
00000050: a6c8 8db8 6a8f e8bb 5a15 143c 8cb9 a8bb
00000060: 13f7 993b 5ca8 d3bb bb53 63bb 6738 ff3b
00000070: 534c 77bb 5789 a53b 7daa f83b 60e8 8a3b
00000080: 20fe 8fbb 2a9e 16bc 011e 00bb 8fd4 0e3c
00000090: d444 283c d005 5d3c 603c 163c b888 80bc
000000a0: 5d2e e73b 7c5d 81bc d8cb 4bbc 3d1c 173c
000000b0: 3d9e 19bc 6ff7 603c c14b f2bb 949b cb3b
000000c0: 4c40 913b f957 f83a 24a6 6dbc 54b0 fbbb
000000d0: 1166 f03b d109 c1b9 d78a 7a3b ddab 4cbc
000000e0: 7ee2 a53b f5a6 13bc 627e f43b 650c 0a3b
000000f0: 72ef 3ebc 05d7 76bc 6e4a 86bc 9c58 823c
00000100: 3a79 b7bc 596d 3a3c 64d5 903c 6c71 87bc
00000110: 3039 7fbb 71fb 17bc 0909 ac3c 3f8a e8bb
00000120: 8beb 97bb b702 0fbc 556e d4ba 0c75 973c
00000130: bf75 90bb f37e 15bc 203f f83b f537 c73c
00000140: 5865 dc3b 7a16 aa3b 849b e2bc 6e13 813b
00000150: 9477 35bc 3b39 47bb cf79 e3b9 07d1 bdbc
00000160: 4b6b a3bc c3fa 0f3c 8848 96bc 49c4 b83b
00000170: 9204 463c 32ab 5c3c 4317 7cbc 795c 4b3c
00000180: be77 0e3b 32da 6b3b 0dd4 593b be4c 0fbb
00000190: 4457 84ba baa1 e039 476d b13b 9a0d 823b
000001a0: 8b01 a03a c9a5 15ba 5234 423a b3d1 f23a
000001b0: 2384 b0ba 8c33 54bb 4267 eab9 01f3 af38
000001c0: e7d1 153c 43e6 5ab9 10cb 04bb ec88 2aba
000001d0: 3a64 17bb 9ce6 9f38 baaa 083b 59ab 23b8
000001e0: 92d5 f93a 2533 a53b f721 70ba d680 c03b
000001f0: 9592 b938 3eb9 1d3b 5fae 0bba 8b74 8e3b
00000200: 8152 41b4 4e20 93b5 2455 1636 0768 8ab5
00000210: e855 0a35 f7bc 00b5 e6ff 2432 204b a435
00000220: e7f1 2fb5 87a7 e734 f448 80b5 8d7c 46b5
00000230: 4da3 d2b5 ce53 3436 6da8 84b5 9721 f035
00000240: ed26 0536 b66b 2f35 8c74 1836 6a4a 7534
00000250: 58c0 e334 d26a 9735 9dde 3bb6 33f6 6f35
00000260: 3bf1 ad35 c8d6 bbb5 272d 5134 7d71 a234
00000270: be74 4f36 82db afb5 73b9 0db6 c7d5 4a36
00000280: 5a79 4fb6 6a0e f235 4ed9 1e33 84f7 32b6
00000290: 98a6 01b6 2bae deb5 674a ddb4 0e7c 7bb5
000002a0: bff6 0bb6 de95 8935 dc6e 2c34 89ea 8833
000002b0: a8a0 bc35 37c4 1735 eacc 2036 ff26 13b5
000002c0: e58a 15b6 9a65 9135 7d52 c135 4043 a635
000002d0: abba 2ab6 a38b bab3 7c6c 20b6 d2f1 ae35
000002e0: eabb 0e35 ab14 de35 063e 9135 112a 2934
000002f0: 4236 2a35 20f1 5035 62bf 3cb5 c971 b5b5
00000300: 95c2 5034 d959 dc34 ddfa b0b5 2433 ab35
00000310: de71 55b5 0b15 92b5 3a53 cdb5 c2f6 1b36
00000320: b429 3db4 84f5 b135 fa34 98b4 fa3c 0233
00000330: 2a7c 8535 243c f1b3 94a9 49b4 57e5 68b3
00000340: 4f8a d1b4 16a9 b4b5 4e40 5535 0409 8534
00000350: 4e48 c735 0523 9c35 b847 5935 6775 8435
00000360: eb31 57b3 2de9 b5b5 4cce a4b3 2e55 8035
00000370: d951 bd34 fc69 8cb5 04ef 3bb4 3a99 21b6
00000380: d02d b134 3551 ef35 27af a635 4559 8f35
00000390: 1527 75b4 2852 deb5 2864 0935 afb6 77b5
000003a0: ee9b 97b5 6414 8ab4 fda3 3db5 1717 cb35
000003b0: 41b3 dcb4 b40e 8b35 2119 f435 fd11 b2b4
000003c0: 14ba 2935 6714 7fb5 7e4e b935 1784 b6b4
000003d0: b64a 93b5 01d4 4eb5 2a2b 8635 886f 5cb5
000003e0: b567 4cb5 5727 2335 22bb 2e35 357b 7b34
000003f0: 80fd 4a34 e87f e6b3 e270 6d35 5240 ee35

stage1.encoder.cross_attn.out_proj.weight f4 [128, 128]
0.06954952 0.017649299 0.059293702 -0.015167081 -0.077530056 0.05774862 0.03399448 0.070552826
0.032556165 -0.00401926 -0.06925816 -0.081667244 0.0152295455 0.071875125 -0.0010846555 -0.025877062
0.038753994 -0.033164192 0.030402202 -0.06690695 -0.08560975 -0.06053058 -0.02070671 0.047773454
0.03483003 -0.06537727 -0.016386736 0.026407285 -0.022464378 0.0010430947 0.055109326 -0.025525771
0.052503195 0.07253703 0.036722053 -0.012873732 -0.058759037 -0.060176298 -0.0076097464 0.026141807
0.044819273 -0.013491418 0.06339869 -0.027029278 0.01559568 -0.044820216 0.017687263 0.07437548
0.044458125 0.002300483 -0.03257361 -0.06295344 -0.04599082 -0.08210827 0.05241785 -0.032404553
-0.021183643 -0.07237585 -0.019121857 0.08053011 0.00908544 -0.024479344 0.03566227 0.06403616
0.075237006 -0.06872366 0.00031597988 -0.0707537 -0.07178444 0.057174824 -0.06714347 -0.036023367
0.047163736 0.08896596 -0.09490376 -0.056846 -0.03482801 0.06669694 0.052228667 0.06940184
0.06663799 -0.014227051 0.05238897 -0.010025375 0.012509856 -0.014947427 0.03848359 0.038881093
-0.0070607504 0.06889815 -0.025871988 0.01599051 0.07853305 0.044568695 -0.028451117 -0.038376722
0.034542583 -0.004874786 0.0066194553 0.047926504 0.022728188 -0.041937087 -0.06796917 0.0879492
-0.015462119 -0.03081952 -0.05762568 0.09281813 0.04847224 -0.05380656 -0.06052019 0.066855766
0.03219285 0.0008823119 -0.07228969 0.057975035 -0.05903548 0.048889447 -0.08456504 -0.06611342
-0.09223147 0.08473358 0.082102545 -0.07898429 0.0733954 -0.0524598 -0.08372019 0.034735292
0.04496727 0.053641018 0.016826004 0.103404105 -0.07172511 0.053482875 -0.029449442 0.0008288883
0.056706402 -0.068252034 0.026556306 -0.007851228 0.053362988 -0.0021850916 0.05293027 0.08811899
-0.03734988 -0.0650885 0.078385204 -0.04296196 0.02081935 0.06161201 -0.021632299 0.09438479
0.04801743 -0.029229049 0.028033558 -0.0010581787 0.0862776 0.05526422 -0.05047706 0.007021366
0.056257043 0.07034462 0.028495053 0.038083654 -0.01838426 0.0011162354 -0.056198232 0.07524518
0.06950643 -0.0572222 -0.08358672 0.074648105 -0.07395995 0.056717284 -0.088142 -0.043814234
-0.027505113 0.080440775 -0.015892625 0.07792649 0.035005216 0.080452055 0.051229212 0.07052525
0.06563966 -0.018698478 -0.021154856 0.0338003 0.069852285 -0.04183046 -0.07650613 -0.06743027
-0.032411385 0.0069223014 -0.016976047 -0.024829019 -0.053465188 0.01894779 -0.06574611 0.09182768
-0.0072497367 0.020758824 0.018210279 -0.030352982 0.0701589 -0.0026524134 0.0070771477 -0.08011608
0.022383675 0.033243902 -0.0034263053 -0.01218358 0.06844106 0.07627852 0.061679818 -0.01390961
0.016945167 -0.069932394 -0.068471886 -0.02088975 0.008439206 -0.053412236 -0.07507304 0.044188682
0.043993626 -0.05165871 0.060948674 -0.070621714 0.0637927 0.05527489 -0.029424947 0.087633185
-0.051119905 -0.038410306 0.078128226 -0.012708217 -0.032553177 0.0154567165 -0.0021745332 0.04631527
0.066089764 0.055661768 0.02019032 0.02774929 -0.0041198176 0.013477128 0.0010757876 0.070540324
0.038355395 -0.0046540415 0.03867837 0.0020836776 0.031695936 0.0747112 -0.05936017 0.011865836
00000000: fb6f 8e3d 4395 903c f4dd 723d 597f 78bc
00000010: 14c8 9ebd d189 6c3d cc3d 0b3d 007e 903d
00000020: 9d59 053d ffb3 83bb 39d7 8dbd 2841 a7bd
00000030: 5885 793c 4433 933d 002b 8eba 22fc d3bc
00000040: 82bc 1e3d 2dd7 07bd 0a0e f93c 8306 89bd
00000050: 2a54 afbd eaee 77bd 1ea1 a9bc 19ae 433d
00000060: efa9 0e3d 85e4 85bd 7a3d 86bc 1754 d83c
00000070: 3707 b8bc 73b8 883a 51ba 613d 6c1b d1bc
00000080: 970d 573d 4b8e 943d dd69 163d 58ec 52bc
00000090: 51ad 70bd 6c7b 76bd 2e5b f9bb 5827 d63c
000000a0: 6a94 373d 1c0b 5dbc 2cd7 813d 816c ddbc
000000b0: 0685 7f3c 6795 37bd e1e4 903c 2c52 983d
000000c0: b919 363d b3c3 163b e86b 05bd bced 80bd
000000d0: df60 3cbd 6128 a8bd 19b4 563d a3ba 04bd
000000e0: 5289 adbc ca39 94bd 71a5 9cbc f8ec a43d
000000f0: 19db 143c e888 c8bc 9a12 123d 6425 833d
00000100: dc15 9a3d febe 8cbd 1aaa a539 51e7 90bd
00000110: b803 93bd 2630 6a3d 8482 89bd 3d8d 13bd
00000120: c32e 413d c933 b63d e75c c2bd 5ad7 68bd
00000130: d1a7 0ebd 6898 883d baed 553d 8d22 8e3d
00000140: 8079 883d 9418 69bc d195 563d 7841 24bc
00000150: 24f6 4c3c 0ee6 74bc f8a0 1d3d c841 1f3d
00000160: de5d e7bb 791a 8d3d 7ef1 d3bc 88fe 823c
00000170: f0d5 a03d aa8d 363d 5112 e9bc e930 1dbd
00000180: 867c 0d3d abbc 9fbb 04e8 d83b 954e 443d
00000190: 7730 ba3c 39c6 2bbd 6c33 8bbd b61e b43d
000001a0: d454 7dbc 3879 fcbc e808 6cbd 6f17 be3d
000001b0: d48a 463d 4464 5cbd 05e4 77bd adeb 883d
000001c0: a6dc 033d f34a 673a 9e0c 94bd 3b77 6d3d
000001d0: 30cf 71bd 4d40 483d 7030 adbd 7966 87bd
000001e0: dae3 bcbd cd88 ad3d 6125 a83d 84c2 a1bd
000001f0: 5450 963d 16e0 56bd 7e75 abbd 9846 0e3d
00000200: 9a2f 383d afb6 5b3d b0d6 893c 88c5 d33d
00000210: 9de4 92bd dc10 5b3d f53f f1bc c149 593a
00000220: f944 683d b9c7 8bbd 9c8c d93c 70a2 00bc
00000230: 2693 5a3d c133 0fbb 69cd 583d bb77 b43d
00000240: 30fc 18bd 1f4d 85bd 6c88 a03d e1f8 2fbd
00000250: 578d aa3c e05c 7c3d 3836 b1bc d04c c13d
00000260: edad 443d c271 efbc a2a6 e53c 96b2 8aba
00000270: 4fb2 b03d bc5c 623d 09c1 4ebd 7d13 e63b
00000280: c96d 663d d710 903d 756e e93c 9bfd 1b3d
00000290: 969a 96bc a54e 923a 1e30 66bd 251a 9a3d
000002a0: 6359 8e3d d361 6abd 842f abbd 1be1 983d
000002b0: 5078 97bd 6250 683d cb83 b4bd 8e76 33bd
000002c0: 6752 e1bc 22be a43d 4031 82bc ec97 9f3d
000002d0: a161 0f3d 0cc4 a43d b9d5 513d 8b6f 903d
000002e0: 166e 863d 8d2d 99bc f34c adbc 2f72 0a3d
000002f0: b70e 8f3d 6b56 2bbd 3faf 9cbd e218 8abd
00000300: cdc1 04bd 79d4 e23b 5a11 8bbc 3a66 cbbc
00000310: 50fe 5abd 6538 9b3c e6a5 86bd 2710 bc3d
00000320: 338f edbb 690e aa3c b92d 953c d1a6 f8bc
00000330: 78af 8f3d 1dd4 2dbb 6be7 e73b e613 a4bd
00000340: f85d b73c c22a 083d dd8b 60bb a39d 47bc
00000350: d42a 8c3d ea37 9c3d faa3 7c3d 22e5 63bc
00000360: 97d0 8a3c b738 8fbd fd3a 8cbd fb20 abbc
00000370: 9844 0a3c cac6 5abd e5bf 99bd 31ff 343d
00000380: a932 343d 1598 53bd 51a5 793d 1ea2 90bd
00000390: bfa5 823d ec67 623d 960c f1bc 0779 b33d
000003a0: 1b63 51bd 2054 1dbd b101 a03d 2036 50bc
000003b0: 7b56 05bd 2b3e 7d3c 9d82 0ebb 15b5 3d3d
000003c0: 125a 873d 98fd 633d 2c66 a53c 7b52 e33c
000003d0: 89ff 86bb 2ccf 5c3c 7101 8d3a 7277 903d
000003e0: 8c1a 1d3d ee80 98bb 366d 1e3d 4f8e 083b
000003f0: 99d3 013d 3002 993d a623 73bd ec68 423c
