results/emotion_stage/supervised_pipeline/stage2_best.pt (torch, 309770 bytes, 14 tensors)

forecaster.out_queries f4 [1, 1, 128]
000000 ae c4 d4 3c aa 50 17 3b 34 8b 3b 3b cc c9 22 3c
       0.02597269 0.002308885 0.0028616907 0.009935807
000010 02 de d8 3c 59 52 1c 3d 30 3e 9c bb 5b 2c eb 3b
       0.02647305 0.03816447 -0.0047681555 0.0071769184
000020 50 3f d5 bb 84 6f 6b 3b 00 2e 4c bc 13 55 d5 3a
       -0.0065077916 0.0035924623 -0.012462139 0.0016275964
000030 f9 61 c7 3c af 90 f8 3c d6 ec b4 3b f8 95 4a bc
       0.02433871 0.030342428 0.005521397 -0.012364857
000040 9b 4e 37 bd e1 2c 05 bd 03 a0 aa bb 57 fa b8 38
       -0.0447527 -0.032513503 -0.005207063 8.820433e-05
000050 11 30 ae 3b d3 80 97 bb 30 30 e0 bb 8f ff 74 3c
       0.0053157886 -0.0046235113 -0.006841682 0.014953508
000060 52 b6 05 bd 4b a1 a5 bc e4 03 c2 3c 84 a8 b5 3c
       -0.032644577 -0.020218512 0.023683496 0.022175081
000070 61 43 c3 b9 f4 2d b6 bb 6b ef 3c 3a 59 e0 6a 3b
       -0.000372435 -0.0055596773 0.0007207307 0.0035839288
000080 e1 0a cc bc 5e 51 9b 3a d2 bf 18 3c fd 05 0e bc
       -0.024907531 0.0011849811 0.009323077 -0.00866842
000090 92 ed 27 3d 4c 5c 23 3d 15 9a 03 3c 40 e0 8c 3c
       0.04099805 0.039882943 0.0080323415 0.017196774
0000a0 ad 6c d0 3c 8d 3d a4 bc 89 d7 99 bb 16 c9 02 3b
       0.025442446 -0.020048881 -0.0046948832 0.0019956282
0000b0 da 53 82 3c 75 17 7e 3c 23 23 85 3a 2f c0 74 3c
       0.015909124 0.015508522 0.0010157566 0.014938398
0000c0 87 d1 da bb 1a 48 8c bb b4 c2 b7 3c 20 60 5b bd
       -0.0066778096 -0.004281056 0.022431709 -0.05355847
0000d0 39 85 23 3c a1 82 d1 bc c8 dd 00 bc 95 54 cf 3c
       0.009980493 -0.025574984 -0.007865377 0.025308887
0000e0 aa 3d 1d 3b f3 d8 d5 bc a1 88 ff 3b 39 99 3d bb
       0.0023993053 -0.026104426 0.00779827 -0.002893044
0000f0 e7 d6 bd 3c 1f 7b 61 bd b7 b7 c3 3a ef 0d ba 3c
       0.023173762 -0.055049058 0.0014932071 0.022711722
000100 0e bb 27 bc 74 79 5c 3b 7a 9b 72 3c 7b 3b 55 3c
       -0.010237468 0.0033641728 0.014807576 0.0130146695
000110 b8 13 0e bc 87 16 86 3b d5 b0 4f bc 1b bd 0c bc
       -0.0086716935 0.004092041 -0.012676437 -0.008590008
000120 5c 5c 12 3c 24 a7 46 3c 6a b6 89 bc 6b 4b 67 bd
       0.008933153 0.01212481 -0.016810615 -0.05646841
000130 52 1d d1 3c cc 02 c4 3c 67 0f 47 bc 20 71 27 3c
       0.025526676 0.023927115 -0.012149668 0.010219842
000140 03 49 b9 3c ef 8d a8 bc 94 c4 90 bc 10 77 24 bc
       0.022617823 -0.020575492 -0.01767186 -0.010038152
000150 a8 c7 07 3d 47 b8 8f bb 29 32 8c b9 57 31 aa 3c
       0.03314939 -0.0043859812 -0.00026740253 0.02077548
000160 f3 88 eb bc f2 a1 21 bc 2d c8 55 3c e7 1a b2 bc
       -0.028751826 -0.009865271 0.013048214 -0.021741344
000170 57 84 f7 3a 64 ba 2e bc 9c 4d 72 bb 30 9f e3 bb
       0.0018884045 -0.010664556 -0.0036972528 -0.006946467
000180 a3 a3 28 bc e1 5d e5 3c da 02 c0 bc 44 35 e9 bc
       -0.01029292 0.027998867 -0.02343886 -0.028467782
000190 0b 75 81 3a 12 7d 82 bb c4 68 26 bc 66 09 bf 3a
       0.00098768 -0.0039821947 -0.010156814 0.0014574945
0001a0 4b b9 8e bc 01 a9 08 bc 7d e2 b6 3a 58 23 89 bc
       -0.017422339 -0.008341075 0.0013952997 -0.016740486
0001b0 e8 07 91 3c 05 56 1b 3c f1 1a 96 3b 23 87 10 3c
       0.017703965 0.009480958 0.0045808484 0.008821282
0001c0 78 bc b7 3c fa ea 13 bc fd d1 ca 3c 1b e0 2b 3c
       0.022428736 -0.009028191 0.024758333 0.010490443
0001d0 a8 84 0b 3d b3 ee 97 3c 1d e3 cd 3c 48 fe 42 3d
       0.034062058 0.018546438 0.02513271 0.047605783
0001e0 11 e6 e1 3c d5 3e ac bc bd c7 3c 3b a1 6e ed bc
       0.027575525 -0.021026054 0.0028805577 -0.028983416
0001f0 dd ae 3f 3c 5e ed 95 3b 04 af 89 bb 9a 91 a9 3c
       0.0116994055 0.0045754155 -0.0042017717 0.020699311

forecaster.proj.weight f4 [128, 6]
000000 2b 22 ae bc 51 84 ae 3e d7 29 02 3e 5b 50 bc 3e
       -0.021256527 0.34085324 0.12711273 0.36780056
000010 b0 9a f5 3c 85 3c 12 3e 93 0d 2b 3d bf 0a c5 3e
       0.029980987 0.14280899 0.041760992 0.3848476
000020 8e da b5 3e e7 3d 61 3d a3 d7 73 be 7d 10 1b be
       0.35518306 0.054990675 -0.23812728 -0.15143009
000030 e9 cf 9d 3e 34 26 48 bd 95 70 90 3e d7 9a 17 3e
       0.30822685 -0.04886456 0.28210893 0.1480516
000040 02 1c 1e be 69 5f b5 3e 44 2e bd 3e 4e b3 68 3e
       -0.15440372 0.35424355 0.3694936 0.2272465
000050 27 3f 10 3b a0 a7 d3 3e 0e 07 2e be af 17 9f 3e
       0.0022010298 0.41338825 -0.16994879 0.31072757
000060 9c 60 8a be 1d b0 f5 bd ed 9b 4f be 06 e0 6d 3d
       -0.27026832 -0.119964816 -0.20274325 0.058074974
000070 dd ba 88 3e 89 65 f0 3c 96 3f b2 3d a7 07 91 be
       0.26705065 0.02934529 0.08703534 -0.2832615
000080 15 34 5c be 0d bf bb 3d 0c 21 a4 3e 60 db a2 be
       -0.21504243 0.091672994 0.32056463 -0.31807995
000090 5a b2 10 be 9d d1 99 3e 33 7e 70 3e 42 0f c1 be
       -0.14130536 0.30042735 0.23485641 -0.37706953
0000a0 1a f6 8a 3e 33 6c 32 3e 33 16 b3 3e 1c b4 c9 3c
       0.27140886 0.17424087 0.34977874 0.024622016
0000b0 15 21 1d 3e c6 73 2f be 74 0a 4c be 73 9d b4 3e
       0.15344651 -0.17134008 -0.19925863 0.35276374
0000c0 ec bd 1f 3e 4b 2b c6 be c4 07 6b 3e 39 98 8e bd
       0.15599793 -0.38704905 0.22952181 -0.06962628
0000d0 7b 26 8b 3d cd be cc 3e ba 23 c9 be 5a 28 8e be
       0.06794449 0.3998932 -0.3928507 -0.2776516
0000e0 9f 6b 70 be 7c 8e 51 be 20 ca 27 3e b2 6a ed 3d
       -0.23478554 -0.2046451 0.16385698 0.11592616
0000f0 d4 85 dd bd 89 fb 1a 3e 0e 66 36 be b9 8f c2 3e
       -0.10816541 0.15135016 -0.17812368 0.38000277
000100 b5 04 e1 bd ff fd 73 3d ec 1d d0 bd 5a ec be be
       -0.10987226 0.0595684 -0.10161957 -0.37289697
000110 91 45 0b 3e c7 b6 a7 bd 41 81 8c be 21 84 cc 3d
       0.13600756 -0.08189159 -0.27442363 0.09986139
000120 1d 6d c6 3e a5 ba 89 3d 05 1c 37 3e 61 77 82 bd
       0.38755122 0.06725053 0.17881782 -0.06370426
000130 24 70 b9 3e 3a 05 67 be 95 59 2b 3d 31 61 46 3d
       0.3621837 -0.22560588 0.04183348 0.048432533
000140 45 2a 56 be 30 cc ce 3e 59 21 e4 bd 9d 0c c4 3d
       -0.20914562 0.40390158 -0.11139173 0.09572718
000150 cf 3e b0 3d 95 a8 b7 3e 4d 2e f9 3d 25 01 9b be
       0.0860573 0.35870805 0.12167034 -0.3027431
000160 57 5c a9 be 42 ab a1 be 31 f4 31 bd fc fc 8a 3e
       -0.33078262 -0.31575972 -0.04344577 0.27146137
000170 b0 73 52 3e fe c2 c6 3e ce fb a3 3e 7c f7 2c 3d
       0.20551944 0.38820642 0.3202805 0.042228207
000180 18 d0 c8 3e a4 bd 02 be 24 1a d2 3e 8d 00 88 be
       0.39221263 -0.12767655 0.4103557 -0.2656292
000190 1b e3 a2 3e 70 67 c7 3e 2a 8b 83 3e 05 80 c8 bc
       0.31813893 0.38946104 0.2569211 -0.024475107
0001a0 0d 56 a6 bd 45 dd f9 3b 09 a3 c1 be d8 28 b3 bd
       -0.08121882 0.0076252543 -0.37819698 -0.08748025
0001b0 6e 4a b7 be e7 29 ed 3d 83 12 5b 3e cf f6 c8 be
       -0.35798973 0.11580258 0.2139378 -0.392508
0001c0 36 93 8d 3e 4e 91 a2 be d8 cb 53 be dc 73 2a be
       0.27651376 -0.31751484 -0.20683229 -0.1664576
0001d0 de a1 d3 be 08 26 71 3c 2b e6 d4 3d 4e b6 90 bd
       -0.41334432 0.01471854 0.103954636 -0.07066022
0001e0 dd ba c9 be 27 89 85 3e bb 2b b4 3e 77 df b3 be
       -0.39400378 0.260812 0.35189614 -0.35131428
0001f0 5d 1f 4d bd 2d 67 b1 3e d4 f1 8d bd db 15 a1 3c
       -0.05007874 0.3464903 -0.06930891 0.019663742
000200 a5 4b 15 bd 80 fb cf 3e 2b b3 8d be a6 20 fd 3d
       -0.036449093 0.40621567 -0.27675757 0.12359743
000210 d6 04 63 3e 5e da c6 3e a2 0e 86 bd 68 69 42 bd
       0.22169814 0.38838476 -0.0654576 -0.047463804
000220 6b f7 46 3e 5d 06 eb bd 9b 32 d8 bd 82 e0 57 be
       0.1943032 -0.11475823 -0.10556527 -0.21081737
000230 a4 61 8c be 2a 38 af be 70 18 b6 3d 39 17 b2 bc
       -0.27418244 -0.34222537 0.0889138 -0.021739589
000240 ea 29 db bc 82 8e 3b 3e d6 ee c0 be 03 3e 48 be
       -0.026753385 0.18316081 -0.37682217 -0.19554906
000250 c8 34 5d 3b d9 94 c8 be 99 a5 00 3e f8 7b 2d 3e
       0.0033753384 -0.39176062 0.1256317 0.16941822
000260 c3 98 a5 3e ca 9f ac 3c 81 e6 a1 3e a2 8b 80 3e
       0.3234311 0.021072287 0.31621173 0.2510653
000270 0b 4f 3f 3e ac fb b1 be 6c fa ce bd ec 7a 65 bd
       0.18682496 -0.34762323 -0.10106358 -0.05602543
000280 d7 ee 03 bd 74 44 68 be 94 6d 99 be 5c 5b 75 3e
       -0.032210197 -0.22682363 -0.29966414 0.23960632
000290 f3 30 b4 3d f4 5e 8d be c8 eb 99 be 23 bd 82 3d
       0.08798399 -0.27611506 -0.300627 0.06383731
0002a0 43 f6 4f be 18 a5 6a 3e b8 59 c1 3e ab ff 1e be
       -0.20308785 0.22914541 0.37763762 -0.15527217
0002b0 6a be 97 3e 02 83 20 3e b0 1a ac be 6f ea 5d 3e
       0.29637462 0.15674976 -0.3361411 0.2167146
0002c0 60 32 16 3d 7e 3d 75 bc 13 d7 ca bd e6 00 94 3d
       0.036669135 -0.014968274 -0.099043034 0.07226734
0002d0 76 37 a0 bc 36 5e aa be 3f 5c 13 3e af d2 bc 3e
       -0.019557696 -0.33275002 0.14390658 0.3687949
0002e0 6c 00 8e 3e 5e ed e9 bc 59 c2 61 3e 42 22 0a 3d
       0.27734697 -0.028555568 0.22046794 0.033724077
0002f0 72 05 0f 3e 48 a4 c0 3e bb 02 8d 3d cb 92 54 bc
       0.13966921 0.37625337 0.068852864 -0.012974451
000300 57 39 b9 3e be 02 86 be 5e 5b ad be bc c8 a3 3e
       0.3617656 -0.26173967 -0.3385877 0.31989086
000310 80 78 a8 bd 68 2f 86 3e 47 60 ab 3d ac d1 7b be
       -0.082261086 0.26208043 0.08367973 -0.24591702
000320 b1 19 bc 3e aa 31 08 be 78 85 ed bd b3 32 b4 3e
       0.3673835 -0.13300195 -0.11597723 0.3519493
000330 aa e4 33 be c8 ca 38 be c6 e5 50 be 2d fa d7 3d
       -0.17567697 -0.18046105 -0.20400152 0.10545764
000340 d2 8c 1f 3e 84 ff c5 be b7 8f 2d bb f5 b9 95 be
       0.15581062 -0.38671505 -0.0026483366 -0.29243436
000350 c6 dc 8a be 8b 7f 36 3d a4 38 9d be 22 81 96 3d
       -0.27121562 0.04455523 -0.30707276 0.07348849
000360 4c 42 39 3e a0 79 af be a2 cb 19 3e 51 72 9b 3d
       0.18091697 -0.3427248 0.15019086 0.075901635
000370 4c a3 92 bb 68 8e bc 3e 37 d2 41 be fe 78 9f be
       -0.004475033 0.36827397 -0.18927847 -0.31146997
000380 1a c6 dc 3d bf 44 93 be c6 e0 4e 3e c5 44 e2 bd
       0.107799724 -0.28763387 0.20202932 -0.11048273
000390 68 50 9b 3c c0 9a 03 be 08 be 44 3e 03 cc 6d 3e
       0.01895924 -0.12852001 0.19213116 0.23222356
0003a0 16 e7 91 3e 4d 8e cb 3e 2d 58 b6 3d 89 13 fd bd
       0.28496617 0.39757004 0.08903537 -0.12357242
0003b0 ea 6d 20 bd a2 ab 6e be 0a 5b 28 be c7 65 c8 3e
       -0.039167322 -0.2330766 -0.16440979 0.3914015
0003c0 cb 3a 19 be f9 ab 35 be 27 08 44 be 06 ef 97 bd
       -0.14963834 -0.17741384 -0.19143735 -0.07418637
0003d0 87 2c 93 bd 34 18 be 3d 8f af 12 be bb be ca bd
       -0.07186227 0.0928196 -0.14324783 -0.0989966
0003e0 ce 17 dd bd 05 da 8e bd 07 50 87 be 97 d2 60 3e
       -0.10795556 -0.06975178 -0.26428244 0.21955334
0003f0 22 f6 a7 be 9f 52 1d 3d d1 5a 47 be d3 67 8e 3e
       -0.32804972 0.03840887 -0.19468237 0.27813587

forecaster.proj.bias f4 [128]
000000 57 e6 90 bd 58 90 25 3d 9d 1c 7b 3e 1c 34 91 be
       -0.07075184 0.04042086 0.24522634 -0.2836007
000010 aa 6d 2e 3e 55 ce 3a 3e aa 2f c9 be 00 9c 98 bd
       0.17034021 0.18242772 -0.39294177 -0.0745163
000020 0b 95 27 3e 10 bb 05 3e b7 bd 63 bd f8 45 c2 bc
       0.16365449 0.1305964 -0.055600848 -0.023715004
000030 c4 e2 02 be 4f 9a a0 be ab cf 2d be bc 90 c7 be
       -0.12781817 -0.31367728 -0.1697375 -0.3897761
000040 1f 1c 83 bd 39 f2 95 3e d1 b0 f7 3d 30 f2 fd 3d
       -0.06401848 0.29286364 0.12094272 0.12399709
000050 22 a9 f4 3d 07 bf 12 be 7c bc 4d 3e 11 94 88 be
       0.11946322 -0.14330684 0.20091432 -0.26675466
000060 57 e5 47 be 71 68 70 be cf 4b 87 bd e2 25 53 3e
       -0.1952108 -0.23477341 -0.06606256 0.2061992
000070 ab 20 cc 3e 93 77 11 3e c2 82 f2 3d 7f fe cf 3d
       0.39868674 0.1420577 0.11841346 0.10155963
000080 65 e7 18 be df c3 8d be 0b d5 b1 3e 17 0e df bb
       -0.1493202 -0.276885 0.3473285 -0.0068070996
000090 96 d3 5a 3e e1 e7 33 be a8 78 90 be 20 74 d8 bd
       0.21369776 -0.17568924 -0.28217053 -0.10569024
0000a0 5b cf 52 3e af a0 3f 3e 17 02 fa bc df 21 2b bd
       0.20586912 0.1871364 -0.030518575 -0.04178035
0000b0 64 ee 70 bd 6b 92 a6 be 8e 64 2e be 25 ad 64 3e
       -0.058821097 -0.32533583 -0.17030546 0.22331674
0000c0 1b bb 31 be dd d5 2d 3e c9 e9 80 be 7f 23 4e 3e
       -0.17356531 0.16976114 -0.25178364 0.20130728
0000d0 fe 5a ec 3d 88 3c bb 3e 65 4c b3 3e 0b 77 42 bc
       0.11540793 0.3656962 0.35019222 -0.011869202
0000e0 f2 de 36 be ad 79 c1 3d 00 fa 05 be d5 2e 1e be
       -0.17858484 0.09447036 -0.13083649 -0.15447553
0000f0 a7 83 57 3d 8b 47 f8 3d 75 b2 a1 bd 03 b9 9d 3e
       0.052615788 0.12123021 -0.07895366 0.30805215
000100 a1 c0 82 be 52 5f dc 3d ca d9 83 3e 79 1c 90 3e
       -0.2553759 0.107603684 0.25752097 0.28146723
000110 ce a1 46 3e 3f 78 8b be 26 95 cb 3d d6 ca f7 3c
       0.19397661 -0.27240178 0.09940557 0.030248087
000120 32 1a 95 3d dd 62 a7 be 78 ca 41 3d 70 8c 52 bb
       0.07280387 -0.32692614 0.04731223 -0.0032127164
000130 5e f4 3a 3d 2b 27 d5 bd b4 a2 51 bb 76 73 cb 3d
       0.045643203 -0.10407861 -0.0031987848 0.09934132
000140 cd 4e 02 3e 16 65 91 3b 58 9e 28 3d 16 07 14 3e
       0.12725373 0.004437099 0.041166633 0.14455828
000150 ab 7e cb be 1b 31 1b be 3a a6 16 be a0 76 36 be
       -0.39745077 -0.15155451 -0.14711848 -0.1781869
000160 53 17 9b be d8 d9 28 be 8f 9f 5f 3e 9b cc 82 be
       -0.30291232 -0.16489351 0.2183821 -0.25546727
000170 98 24 53 be a8 05 a8 3e 06 87 8e 3e f6 cc be 3c
       -0.20619428 0.32816815 0.2783739 0.023291092
000180 6c a9 7c 3e aa 5f 23 bd 64 cb 20 3d 08 3f 81 be
       0.24674004 -0.039886154 0.03925647 -0.25243402
000190 25 1c 6b 3e 77 8a 27 3e d2 2a c3 be f1 36 a9 be
       0.22959955 0.16361414 -0.38118607 -0.3304973
0001a0 d7 b7 de 3d 52 cf ca 3e 1e 80 9e 3d 77 85 f1 3d
       0.108749084 0.39611298 0.0773928 0.117930345
0001b0 09 44 0f be 4a f9 7b be f9 b1 07 3d 9a c8 fc 3d
       -0.13990797 -0.24606815 0.033128712 0.12342949
0001c0 1b c0 1d 3c 50 50 b6 bb 28 cb 6a 3d f7 aa b9 be
       0.009628321 -0.005563773 0.05732265 -0.36263248
0001d0 03 08 a1 3e e2 2d c8 3d 77 78 23 3e b6 88 da 3d
       0.31451425 0.097743765 0.15963922 0.10670607
0001e0 9a ca 7f bd ee e0 c8 be 76 62 c9 3d 89 33 2c 3e
       -0.062449075 -0.39234108 0.09833233 0.16816534
0001f0 a2 9c 71 3d 73 e8 7d 3e 50 af 57 bd c4 5f 5c be
       0.058987267 0.24795704 -0.052657425 -0.21520907

forecaster.norm_kv.weight f4 [128]
000000 f4 09 81 3f 6c 64 80 3f ad d9 80 3f 2d ec 7f 3f
       1.0081162 1.0030646 1.0066429 0.9996975
000010 ee fc 80 3f ac 0f 81 3f 90 2e 81 3f 92 78 80 3f
       1.0077188 1.0082908 1.0092335 1.0036795
000020 ad d7 80 3f 58 09 80 3f 56 55 7e 3f 2e 5e 81 3f
       1.0065819 1.0002851 0.9934896 1.0106866
000030 22 07 80 3f 21 e0 80 3f a8 a0 7c 3f c6 1d 80 3f
       1.0002177 1.0068399 0.9868264 1.0009086
000040 c0 3a 81 3f 50 0e 81 3f 8e 10 81 3f 62 94 80 3f
       1.0096054 1.0082493 1.0083177 1.0045283
000050 0e 76 7f 3f a2 55 80 3f c2 91 80 3f 99 b3 80 3f
       0.9978951 1.0026133 1.0044482 1.0054809
000060 da 21 81 3f 78 3f 7f 3f 16 e1 80 3f a3 b2 80 3f
       1.0088456 0.9970622 1.0068691 1.0054516
000070 0e cf 80 3f 69 27 81 3f 30 6a 7f 3f 81 bf 80 3f
       1.0063188 1.0090152 0.99771404 1.0058442
000080 bf 33 80 3f 98 30 80 3f a3 e9 7c 3f c7 e7 7d 3f
       1.0015792 1.001483 0.98794 0.9918179
000090 ab 43 80 3f 2a 51 7d 3f 62 2d 7e 3f 7f 38 81 3f
       1.0020651 0.9895197 0.99288 1.0095366
0000a0 44 2a 81 3f 1f 41 81 3f 84 b8 80 3f d8 f7 80 3f
       1.0091023 1.0097998 1.005631 1.0075636
0000b0 c1 3d 81 3f 6b 37 81 3f 49 ab 80 3f 5e 49 81 3f
       1.0096971 1.0095037 1.0052272 1.0100515
0000c0 67 16 81 3f c3 24 7f 3f d7 45 81 3f 75 0e 81 3f
       1.0084962 0.9966547 1.0099438 1.0082537
0000d0 18 13 81 3f cb 18 80 3f e6 aa 80 3f b6 f3 80 3f
       1.0083952 1.0007566 1.0052154 1.0074375
0000e0 fa e8 80 3f aa 48 81 3f ba 3b 81 3f c0 0e 80 3f
       1.0071099 1.01003 1.0096352 1.0004501
0000f0 29 40 81 3f dc 42 81 3f 58 17 80 3f 4d 56 7f 3f
       1.0097705 1.0098529 1.0007124 0.9974106
000100 e2 aa 80 3f 64 20 81 3f 73 d1 7e 3f 62 45 81 3f
       1.0052149 1.008801 0.99538344 1.0099299
000110 1a 3b 81 3f 76 f7 80 3f b5 3c 81 3f dd 7e 80 3f
       1.0096161 1.0075519 1.0096651 1.0038716
000120 9d 45 81 3f e6 2d 81 3f 9b 43 81 3f 75 7d 80 3f
       1.0099369 1.0092132 1.0098757 1.0038286
000130 2d 37 81 3f 62 3d 81 3f ee 30 80 3f 64 d6 80 3f
       1.0094963 1.0096858 1.0014932 1.0065427
000140 76 f3 80 3f 85 2f 81 3f 97 3f 81 3f df 1d 81 3f
       1.0074298 1.0092627 1.0097531 1.0087241
000150 cf 46 81 3f 32 f8 80 3f a7 f8 80 3f 7e 4b 7e 3f
       1.0099734 1.0075743 1.0075883 0.9933394
000160 c0 f4 80 3f 2d 18 7f 3f d3 8d 7f 3f 43 be 80 3f
       1.0074692 0.99646264 0.9982578 1.0058063
000170 b8 e6 7d 3f 41 42 80 3f f1 27 81 3f 22 23 80 3f
       0.99180174 1.0020219 1.0090314 1.0010722
000180 2f 01 81 3f c3 41 81 3f 86 2e 81 3f a9 6e 80 3f
       1.0078486 1.0098194 1.0092323 1.0033771
000190 dc fd 80 3f 04 b6 80 3f 3b 3c 81 3f 35 4a 81 3f
       1.0077472 1.0055547 1.0096506 1.0100771
0001a0 53 61 7e 3f 0c 44 81 3f 81 34 81 3f 6f fa 80 3f
       0.99367255 1.0098891 1.0094148 1.0076426
0001b0 ef fd 80 3f 7d 2d 81 3f cc 34 81 3f 88 35 81 3f
       1.0077494 1.0092007 1.0094237 1.0094461
0001c0 d1 f3 7e 3f 2d 3f 81 3f e3 27 81 3f 46 ad 80 3f
       0.99590784 1.0097405 1.0090297 1.0052879
0001d0 cb 29 81 3f f3 3e 81 3f e6 8a 80 3f f2 46 81 3f
       1.0090879 1.0097336 1.0042388 1.0099776
0001e0 94 ab 80 3f 04 2d 81 3f eb 96 7e 3f d1 1b 7f 3f
       1.0052361 1.0091863 0.9944903 0.9965182
0001f0 2d 3d 81 3f 2d 4f 7f 3f 5f 0f 80 3f 64 43 81 3f
       1.0096794 0.9973019 1.0004691 1.0098691

forecaster.norm_kv.bias f4 [128]
000000 a9 fe 29 bc 77 2a 2a bc bd 39 fe bb 89 f2 72 bb
       -0.010375657 -0.010386101 -0.007758348 -0.0037070832
000010 c1 03 a8 bb 6f b9 26 bc b9 52 25 bc 80 71 33 bb
       -0.0051274006 -0.010176047 -0.010090523 -0.0027380884
000020 f8 42 29 3c 84 db 8a 3b 6f dc 15 bc da 16 2c bc
       0.010330908 0.004237594 -0.009146794 -0.010503495
000030 73 fd 4e 3b f7 a4 e4 bb 32 a1 60 ba d3 8d e6 3b
       0.0031584173 -0.006977673 -0.0008568942 0.0070359497
000040 57 bd 2a 3c e1 c0 25 3c 44 af f1 3b f3 55 ba bb
       0.010421119 0.010116787 0.0073756296 -0.0056865155
000050 ee 01 26 3c 59 4d c7 3b 1d 0b 14 3b 2d 9e fb bb
       0.010132296 0.0060822186 0.0022589632 -0.007678768
000060 47 13 2e bc 04 0b 77 39 1b 2d be bb 9b 88 c8 3b
       -0.010624713 0.00023559859 -0.005803717 0.0061198003
000070 05 88 03 3c 5d 62 25 3c 7b 88 03 3c c0 a8 d0 3b
       0.008028035 0.010094252 0.008028145 0.006367773
000080 1c 7c f0 bb bc 01 04 3b 3a c5 e6 3b af d2 fa bb
       -0.0073390137 0.0020142635 0.007042554 -0.00765451
000090 f6 c3 c8 ba 0a e7 25 bc 0a e8 79 3a 77 90 24 3c
       -0.001531719 -0.010125885 0.00095331727 0.010044209
0000a0 f1 85 29 bc c4 32 29 3c 57 7c dd bb 5e c8 04 3c
       -0.0103468755 0.010327045 -0.006759207 0.008104412
0000b0 e5 b5 2d bc a3 79 23 3c 8e 2c c4 bb 0b ad 2c 3c
       -0.010602449 0.009977731 -0.0059867566 0.0105393035
0000c0 5a ca 18 bc af 72 2e bb d0 40 2c bc f2 0f 10 3c
       -0.009325588 -0.002661865 -0.010513499 0.008792864
0000d0 dc 96 12 bc 29 83 b2 3a f9 8c 9e bb 3d 89 01 3c
       -0.0089471005 0.0013619411 -0.0048385826 0.007906255
0000e0 16 43 01 bc 7c 23 2c 3c 6e 07 25 bc 04 24 33 3a
       -0.00788953 0.010506507 -0.010072572 0.0006833675
0000f0 63 42 2b bc 6d ae 29 3c d7 86 1b bb 83 48 0a bb
       -0.01045284 0.010356528 -0.0023731494 -0.002110035
000100 5b 9a bc bb fe c9 18 3c 2b 18 a7 bb a1 1c 2b 3c
       -0.0057557053 0.009325502 -0.0050993166 0.010443837
000110 7d 9e 26 bc cc 22 03 3c ee b9 29 bc a2 fc 9d 3b
       -0.0101696225 0.008003902 -0.0103592705 0.004821376
000120 7a 76 2d bc a8 d2 21 3c 6d 62 2b bc 3a 55 8d 3b
       -0.010587329 0.0098768845 -0.010460478 0.0043131383
000130 60 a2 25 bc c1 62 26 3c 9c 8b 19 bb 32 e0 e6 3b
       -0.010109514 0.010155381 -0.002342916 0.007045769
000140 d3 43 06 bc 62 20 20 3c 98 6e 25 bc 5e 37 16 3c
       -0.0081948815 0.009773346 -0.010097168 0.009168474
000150 5b e2 2b bc 65 e8 02 3c 87 ed 05 bc 42 72 d8 bb
       -0.010490979 0.0079899775 -0.008174307 -0.0066054175
000160 e4 3e 04 bc d7 19 48 bb e1 b5 99 3a fd c4 f1 3b
       -0.008071635 -0.003053298 0.0011727178 0.007378219
000170 57 b2 f1 3b 48 84 29 3b 00 aa 22 bc a4 3f d1 3a
       0.007375996 0.00258662 -0.0099282265 0.0015964401
000180 43 f2 0a bc d7 66 29 3c 04 3d 25 bc 71 70 79 3b
       -0.008480611 0.01033946 -0.010085348 0.0038061405
000190 96 e9 09 bc 89 11 c9 3b 74 eb 28 bc ea 42 2d 3c
       -0.008417508 0.0061361236 -0.010310043 0.010575036
0001a0 1a 04 a5 3b 1a 94 2a 3c 6c 37 24 bc f8 05 06 3c
       0.0050358893 0.010411287 -0.010022979 0.008180134
0001b0 16 03 07 bc c5 4f 1e 3c 5f 7e 23 bc 9f 08 23 3c
       -0.008240482 0.009662573 -0.00997886 0.009950786
0001c0 70 4c 77 bb 6d 5b 27 3c 99 5a 1b bc 61 ff c6 bb
       -0.003773477 0.010214669 -0.009482049 -0.006072924
0001d0 fe 42 22 bc 9b 76 27 3c 17 b7 9a bb 95 75 2b 3c
       -0.0099036675 0.010221149 -0.004721533 0.010465045
0001e0 75 29 bc bb 88 5a 19 3c c1 93 a9 3b 87 51 3e bb
       -0.0057422468 0.009359963 0.0051750843 -0.0029040293
0001f0 e2 ce 28 bc 8d 15 1b bb dc 3a 8b ba a4 fd 27 3c
       -0.010303231 -0.0023663968 -0.00106224 0.010253344

forecaster.norm_q.weight f4 [128]
000000 b3 18 7f 3f 74 2a 7e 3f 36 83 7e 3f 5b 62 80 3f
       0.99647063 0.9928353 0.9941896 1.0030016
000010 db 30 7f 3f 09 e0 7e 3f c6 a6 7e 3f 6b d8 7f 3f
       0.9968392 0.995606 0.99473226 0.999396
000020 e4 53 7f 3f fe ea 7f 3f 9c 44 7f 3f 13 f8 7e 3f
       0.9973738 0.99967945 0.99714065 0.9959728
000030 cc 01 80 3f e7 b3 7f 3f 02 2b 80 3f c0 b1 7f 3f
       1.0000548 0.99883884 1.0013125 0.998806
000040 81 78 7f 3f 29 01 80 3f 4a 42 7f 3f 7d f6 7f 3f
       0.9979325 1.0000354 0.99710524 0.99985486
000050 92 f5 7e 3f 07 02 80 3f 23 ff 7e 3f 5e 7a 7e 3f
       0.9959346 1.0000619 0.9960806 0.9940547
000060 83 9c 7f 3f 56 69 7f 3f bb 1b 80 3f 23 a4 7f 3f
       0.9984819 0.99770105 1.0008463 0.9985983
000070 10 0c 7f 3f 19 6c 7e 3f 45 04 80 3f d6 a3 7f 3f
       0.9962778 0.99383694 1.0001303 0.9985937
000080 ec ce 7f 3f 3b ec 7f 3f 63 37 80 3f 6d 09 80 3f
       0.9992511 0.99969834 1.0016903 1.0002877
000090 c7 ce 7e 3f a9 4e 7f 3f 1b 91 7e 3f e4 8b 7e 3f
       0.9953427 0.997294 0.99440163 0.99432206
0000a0 50 ec 7e 3f f1 2d 7f 3f 71 30 7f 3f a9 a7 7e 3f
       0.99579334 0.99679476 0.9968329 0.9947458
0000b0 67 96 7e 3f 30 9d 7e 3f 35 2d 80 3f 6a e7 81 3f
       0.99448246 0.994586 1.0013796 1.0148747
0000c0 94 f9 7f 3f 32 da 7f 3f 73 b0 7f 3f 98 ea 7d 3f
       0.999902 0.99942315 0.99878615 0.99186087
0000d0 ec 2a 80 3f e3 2c 7d 3f 4d 21 80 3f 4e 86 7d 3f
       1.0013099 0.98896617 1.0010163 0.9903306
0000e0 af 7f 7e 3f f9 f7 7e 3f 29 71 7f 3f 73 c3 7f 3f
       0.9941358 0.99597126 0.99782044 0.99907607
0000f0 f8 5a 7f 3f 7b 19 80 3f be a8 7d 3f f5 a0 7e 3f
       0.9974818 1.0007776 0.99085605 0.9946435
000100 3e ca 7f 3f f0 14 80 3f 71 d0 80 3f 0c 9e 7f 3f
       0.9991797 1.000639 1.0063611 0.99850535
000110 24 8e 7f 3f 20 01 7f 3f 3b 69 80 3f 96 ba 7f 3f
       0.99826264 0.9961109 1.0032114 0.9989408
000120 80 28 80 3f d7 59 80 3f ad 96 7e 3f d1 db 7f 3f
       1.001236 1.0027417 0.99448663 0.9994479
000130 87 67 7f 3f ad 54 7f 3f 77 c4 7e 3f 8d 6f 80 3f
       0.99767345 0.9973858 0.9951853 1.0034043
000140 71 4e 7f 3f ca bb 83 3f 24 ab 7f 3f 58 d6 7f 3f
       0.9972907 1.0291684 0.99870515 0.9993644
000150 2d 4b 7f 3f 7a 91 7f 3f 45 8c 7e 3f 74 d1 82 3f
       0.99724084 0.99831355 0.99432784 1.022017
000160 15 ae 7e 3f 25 eb 7e 3f eb d3 7f 3f fb c6 7f 3f
       0.9948438 0.9957755 0.99932736 0.99912995
000170 31 18 80 3f 16 09 80 3f 8f 98 7f 3f bd 19 81 3f
       1.0007383 1.0002773 0.9984216 1.008598
000180 db 09 80 3f 9c 02 7f 3f 31 1a 7f 3f 2e 08 80 3f
       1.0003008 0.99613357 0.9964934 1.0002496
000190 19 d1 7f 3f 12 b5 7f 3f ae b4 7f 3f 79 3c 7f 3f
       0.9992843 0.99885666 0.9988507 0.9970165
0001a0 4e 95 7f 3f 97 53 7f 3f c6 35 7e 3f 85 5c 7f 3f
       0.99837196 0.9973692 0.993008 0.9975055
0001b0 c9 69 7e 3f a3 31 80 3f cb 7c 7e 3f b9 79 7f 3f
       0.99380165 1.0015148 0.9940917 0.9979511
0001c0 6e bf 7f 3f 49 1e 7f 3f 67 2f 7f 3f 68 77 7e 3f
       0.99901474 0.99655586 0.99681705 0.9940095
0001d0 93 c2 7f 3f d5 e4 7f 3f eb 6e 7f 3f 80 e8 7e 3f
       0.9990627 0.99958545 0.9977862 0.99573517
0001e0 9b d0 7e 3f f8 e8 7f 3f 31 c4 7f 3f 77 f4 7f 3f
       0.99537057 0.9996486 0.9990874 0.999824
0001f0 df 3e 80 3f c0 13 80 3f c6 b5 7e 3f 18 c5 7f 3f
       1.0019187 1.0006027 0.99496114 0.99910116

forecaster.norm_q.bias f4 [128]
000000 a7 5d f3 ba 45 49 1f 3c 86 b0 bc 3b 90 18 e7 3b
       -0.0018567339 0.009722059 0.005758348 0.0070524886
000010 77 3c 65 bb 3a 28 8b bb 7d f7 c1 3b fe 85 ce ba
       -0.0034978667 -0.0042467387 0.0059193955 -0.0015756486
000020 4c 60 43 3a 2b 11 6b 3b d2 d0 fc 3a f5 e5 c6 bb
       0.0007453009 0.0035868387 0.0019288308 -0.0060698935
000030 aa 58 65 3a 9e 10 20 ba 0f f2 c1 39 ed 03 94 3a
       0.0008748869 -0.0006105992 0.00036992176 0.0011292674
000040 36 57 d4 3a 70 f4 f3 b9 1d bf 2d 3a 7b 62 10 bb
       0.0016200307 -0.00046530692 0.00066279044 -0.0022031355
000050 05 75 34 bb 08 04 7c b9 e3 cc f1 3a 46 34 b2 bb
       -0.002753557 -0.00024034095 0.0018447902 -0.0054383604
000060 b8 73 23 b9 3a 71 8b 3a 46 3b 44 3a f6 ff 8c ba
       -0.00015588 0.0010638603 0.0007485639 -0.0010757435
000070 f0 ea 88 3b 51 e9 13 3c e1 00 ab ba e4 7f 04 3b
       0.0041783974 0.009027795 -0.0013046527 0.002021783
000080 be bc 40 ba 84 f0 e9 ba a9 26 19 3c 47 26 1e ba
       -0.00073523435 -0.0017848168 0.009347596 -0.00060329254
000090 63 5b 7e bb ea ea d2 ba 37 69 a2 bb 9c 46 a3 bb
       -0.0038811795 -0.0016091738 -0.0049563902 -0.0049827825
0000a0 77 3a 6c bb 15 22 47 3b 82 fe ea bb 05 f9 a7 bb
       -0.003604559 0.0030385305 -0.007171453 -0.005126121
0000b0 59 5c 96 bb ed a9 b3 bb 06 6f ad ba 53 b8 68 3c
       -0.0045886454 -0.005482903 -0.001323194 0.014204103
0000c0 a3 10 34 39 5b 0a 03 3a fa 09 e1 b9 34 2e f4 3b
       0.00017172335 0.00049987965 -0.00042922777 0.007451797
0000d0 ff f7 2c 3b 05 db 33 3c 15 6c 0b bb 61 60 11 bc
       0.0026392934 0.010977511 -0.0021274139 -0.008873076
0000e0 3a 33 e2 3b 4b 33 5b 3b ae fd 83 bb 1d e0 38 3a
       0.0069030793 0.003344732 -0.0040280437 0.00070524385
0000f0 4f df 3e bb d4 46 79 ba b3 39 86 3b 1c f5 9b bb
       -0.0029124802 -0.00095091504 0.0040962338 -0.004759444
000100 f1 e3 cf 39 bf 14 5e 39 d9 87 5c 3c 4a a7 4c bb
       0.00039651946 0.00021179298 0.013460123 -0.0031227642
000110 da 1b 9a 39 83 a8 d4 bb 5f 9b 9f bb 94 eb 91 bc
       0.0002939392 -0.0064898147 -0.0048708166 -0.017812528
000120 61 f7 23 3b c8 02 74 3b 62 70 a4 3b 06 b8 21 ba
       0.0025019275 0.0037233103 0.00501828 -0.0006169084
000130 f0 87 26 3a f6 64 5a bb b1 ec a7 3b 88 90 9b 3b
       0.0006352654 -0.0033324338 0.0051246514 0.004747454
000140 bd 0c 2d ba 4a 9c 95 bc e2 b7 19 b8 dd 21 20 ba
       -0.00066013244 -0.018263001 -3.6649297e-05 -0.00061085616
000150 9f be 17 bb 5b 9e b8 3a ac 10 b7 3b 04 50 90 3c
       -0.002315439 0.001408528 0.0055867042 0.01761628
000160 0d 51 87 3b c7 a0 8e 3b 12 3d 5b ba 58 43 7a ba
       0.004129535 0.0043526622 -0.0008363287 -0.0009546778
000170 2d ac fd b8 f4 a2 08 ba 25 c0 36 3a 45 f5 10 bc
       -0.0001209605 -0.000521227 0.0006971381 -0.008847539
000180 ac da c5 ba 13 72 6a bb 14 21 44 3b 15 56 4b b9
       -0.0015095077 -0.003577356 0.0029926943 -0.00019391657
000190 7d bf c3 ba 6c b2 b5 39 65 df 56 3a c8 9c 32 3a
       -0.0014934387 0.00034655945 0.00081967405 0.00068135234
0001a0 00 ba c1 3a 37 bb 91 3b 2e d7 e2 3a c9 32 82 3a
       0.0014780164 0.0044473666 0.001730656 0.0009933348
0001b0 03 63 8d bb 73 40 57 3c e4 4a 1d 3a 3a 8e 28 bb
       -0.0043147816 0.0131379245 0.0006000234 -0.002571954
0001c0 b4 1d 03 ba 44 26 4f 3b 75 b3 3a bb c8 8f 68 bb
       -0.00050016795 0.0031608501 -0.0028488312 -0.003548609
0001d0 2d 5b d1 b9 0c 59 90 b9 d6 b2 cf ba 11 b4 40 bb
       -0.00039931518 -0.00027532165 -0.0015846144 -0.0029404203
0001e0 aa 10 9c bb 6d ea 82 b9 a1 29 8a 39 60 46 63 b9
       -0.0047627287 -0.00024970193 0.00026352427 -0.00021674624
0001f0 d6 41 81 3c bb 1b 8c 3a 4b a1 5d 3b ab 1b d6 ba
       0.015778463 0.0010689417 0.0033818062 -0.001633515

forecaster.cross_attn.in_proj_weight f4 [384, 128]
000000 9c 7f d6 bd ba 01 05 bd 84 0a 0b 3d b8 f6 6b 3d
       -0.10473558 -0.03247235 0.033945575 0.057608336
000010 67 8f 55 bd d6 e4 ca 3d ee de d5 3c aa fa b0 3c
       -0.052138712 0.09906928 0.026107278 0.021603901
000020 44 27 c5 bc a1 cd e8 3c 4e 04 b1 3d 9c 65 02 bd
       -0.024066575 0.028418364 0.08643399 -0.031835184
000030 92 0a 10 3d 0b e9 ba 3c 8e 14 ae 3d 57 93 1b 3d
       0.03516633 0.022816202 0.08500014 0.03798231
000040 73 cc ed bc 68 e3 88 3b 91 ba 1b bd fd 1e 8e bd
       -0.029028153 0.0041774996 -0.03801972 -0.06939504
000050 75 35 5c bd 56 78 cb 3c a6 36 84 bd a8 26 e0 3c
       -0.053761918 0.024837654 -0.06455736 0.027362183
000060 fb 53 b9 3c 1f 6c 44 3d 4e 18 86 bd 1b 6c b1 bc
       0.022623053 0.047954675 -0.065476045 -0.021657994
000070 e8 6a b4 3c 17 b2 c0 bd cf 92 cb 3c 38 9e ea 3c
       0.022023633 -0.09408968 0.024850277 0.028639898
000080 82 be 02 3d fe dd dd 3d 89 b3 89 3d 40 d2 ca bc
       0.031919964 0.10833357 0.06723697 -0.024758458
000090 c7 f8 a1 bb 11 f1 c2 bd 14 2b 33 bd 4b a9 9e bd
       -0.0049429866 -0.09518636 -0.043742254 -0.07747134
0000a0 63 97 ed ba e4 e1 44 3b 0d d9 b0 3d e3 b9 a1 3d
       -0.0018126782 0.0030041868 0.08635149 0.07896783
0000b0 c5 71 87 3d e7 18 93 bd 04 b2 23 bd c4 a3 21 bd
       0.06613497 -0.07182484 -0.03996469 -0.03946282
0000c0 05 18 c5 3c 49 1b 59 3d f3 f0 d2 3d db bc 22 bd
       0.024059305 0.053004537 0.10299864 -0.039730888
0000d0 ad 22 f0 3c ce 27 e2 3d b0 eb b5 3d db 49 ef 3a
       0.02931341 0.110427484 0.088828444 0.0018256264
0000e0 25 16 68 3d 4c cd dc 3d 03 25 c2 bd b2 78 c6 3d
       0.056661744 0.10781345 -0.09479716 0.096909896
0000f0 d0 6a 5e bc 55 d5 45 bd 02 e2 86 3d 60 65 9e bd
       -0.013575271 -0.048299152 0.06586076 -0.077341795
000100 39 f7 7d bc 0f 50 d4 3d 86 8a da 3c 64 08 7a bc
       -0.015500837 0.103668325 0.026677381 -0.01526079
000110 d6 22 ba 3d 22 24 28 bd fe 0a 1b 3d 87 b9 84 bd
       0.09088676 -0.041050084 0.03785228 -0.06480699
000120 2b b2 4d bd 46 9c d5 bd 4d e4 b6 3d 37 df 0c 3b
       -0.050218742 -0.104301974 0.08930264 0.002149535
000130 96 73 a2 bd 38 24 a9 bc 2e cf 47 3d e2 ac 91 3d
       -0.079322025 -0.020647153 0.048781566 0.07113053
000140 5c 49 76 3d 34 0e 9a 3d e9 c5 5f bd 4d 3d 5f bd
       0.060128555 0.0752224 -0.0546321 -0.05450182
000150 80 b1 65 bd 9b cc c7 3c 35 54 f1 3c c2 1a 20 3d
       -0.05607748 0.024389556 0.029459098 0.03908802
000160 57 5a e0 3b 81 01 64 bc bf 14 84 3d bc a2 c0 3b
       0.006846707 -0.013916374 0.064492695 0.0058787744
000170 57 68 b2 3d eb e3 b7 3d 45 92 7d bd 1e ac d7 bd
       0.087113075 0.08979019 -0.06190707 -0.105308756
000180 46 cf 55 3d 4a 6b 9c 3d 2a c4 de ba d9 37 45 3c
       0.052199624 0.07637651 -0.0016995717 0.012037241
000190 32 c8 90 3d ca 5f b1 bd 6c dd 3d 3d 9f ca 97 3d
       0.07069434 -0.086608484 0.046353742 0.07411694
0001a0 0c 94 bb 3c 67 a9 a4 bc 83 c1 73 3b 60 6e ca bd
       0.022897743 -0.020100309 0.00371942 -0.098843336
0001b0 7f 6e d3 3d 05 18 d9 3d 56 15 ae 3d 86 10 26 3d
       0.1032381 0.106002845 0.08500163 0.0405431
0001c0 11 fc c2 3d 63 8d 11 3c a1 c0 17 bb 2f 2f a1 bd
       0.09520734 0.008883807 -0.0023155587 -0.07870328
0001d0 e3 0d 92 bb de 5c a4 3d 66 bd 10 bd 9a cb 99 bc
       -0.004457222 0.080255255 -0.035336874 -0.018773843
0001e0 f0 24 9c 3d 11 4f be 3d db 97 48 3c fd ca 1e 3c
       0.07624233 0.092924245 0.012243236 0.009691951
0001f0 fd f4 a5 3c 8f 5d a5 3d 8c 59 2e 3c ee 01 5a bd
       0.020258421 0.080744855 0.010641467 -0.053224497
000200 11 87 8f bd f2 26 8b 3d 7c a6 08 3d 04 b0 5f bc
       -0.07008184 0.067945376 0.033361897 -0.013652805
000210 54 67 3d bd 61 f2 0f 3d da f0 9f 3c 5e 29 a1 bd
       -0.04624112 0.03514326 0.019524027 -0.07869218
000220 84 36 67 bd b6 ba 9c 3d b5 03 8c bc a4 8f 82 bd
       -0.056448475 0.076528 -0.017091611 -0.063750535
000230 96 32 f1 3c d4 9b 8e 3d 8f a9 cc 3d b5 dd 92 3d
       0.029443067 0.069633156 0.09993278 0.071711935
000240 e8 80 13 3d 3a 6a cd bd 0c c9 dd bc 4b 7c 62 3d
       0.036011606 -0.10030027 -0.027073406 0.055294316
000250 8e ea bf 3b 37 94 9c 3d e1 47 45 3d 8a 65 cd 3d
       0.0058568185 0.07645457 0.048164252 0.10029133
000260 9a 71 27 3d a7 a6 2c bd 9c 02 0c bd d8 e4 67 bc
       0.040879823 -0.04215112 -0.034182176 -0.014153682
000270 da fe 89 3c 47 a4 a0 3d c6 62 9b bd 74 4d b4 3c
       0.016845156 0.078438334 -0.07587199 0.022009589
000280 b1 b6 82 3d 12 5c d9 bd 00 99 9c 3d 0e ec 62 bd
       0.06382502 -0.10613264 0.0764637 -0.0554009
000290 5c 48 91 3c f3 8e 40 bc 6a ca aa bd 5a d0 93 bd
       0.017734699 -0.011752832 -0.08339389 -0.07217474
0002a0 4e 20 8e 3d d9 4c 6a 3d 4c e8 66 bd 80 30 cb bd
       0.069397554 0.057202194 -0.05637388 -0.0992136
0002b0 59 ed a0 bd 94 57 13 3d a9 34 b7 3d 89 65 69 bd
       -0.078577705 0.035972193 0.08945591 -0.056981597
0002c0 1b f6 9d bb 80 fd c6 3d b0 09 a8 bc 9d 28 1c bc
       -0.004820598 0.0971632 -0.020512432 -0.009531167
0002d0 b6 f7 63 bd 5b 8f 5f bd 73 f0 b5 3d 7b 95 80 bd
       -0.055656157 -0.054580074 0.08883753 -0.06278511
0002e0 53 91 cc bd b9 3f b4 bd 57 8c 1f bd 12 f5 85 3d
       -0.09988656 -0.08801217 -0.038952198 0.06540884
0002f0 d5 93 a4 bd 35 2a d6 3d 76 68 75 bd f9 91 cb 3d
       -0.08036009 0.10457269 -0.059914075 0.099399514
000300 67 e3 88 bb 1f f6 2b bc 82 bf 30 3d 0d 3f ac 3d
       -0.004177499 -0.010495692 0.043151386 0.084104635
000310 29 32 96 3c 37 f6 06 3d 1d ce 4e bd b1 67 8e 3c
       0.018334465 0.032949653 -0.050489534 0.017383428
000320 37 7f 54 bd 1b 2c 88 3d 7e 52 c2 3d a2 98 97 bd
       -0.051879134 0.066490375 0.094883904 -0.07402159
000330 2d 78 de 3d 94 7a 31 bd b1 c8 49 3c a1 9d 72 bd
       0.108627655 -0.04332979 0.012315915 -0.059232358
000340 de e4 7b 3d 13 41 75 bd 54 7c 56 bd a9 cc cc bd
       0.06149756 -0.059876513 -0.052364662 -0.09999973
000350 83 60 cb 3b 65 78 e0 bd 03 42 83 3d 14 d5 ef 3d
       0.0062065735 -0.109604634 0.06409075 0.11710563
000360 6e 2f f7 bc 3e da 2b bd 39 c5 31 3d 77 0c 82 3d
       -0.030173983 -0.04195618 0.043400977 0.06350034
000370 f0 7b ac bd cf b6 9b bd 8f 77 9a bd 6c bb bc 3d
       -0.08422077 -0.07603227 -0.07542335 0.092154354
000380 3b b0 cf 3d 39 dd 8c 3c d3 42 54 3d 14 21 cd 3d
       0.10141035 0.017195331 0.05182154 0.10016075
000390 66 3e 7e bc d6 55 8b 3d de 35 85 bd d3 ac 86 3b
       -0.015517807 0.06803481 -0.06504415 0.0041099577
0003a0 c2 07 d1 3d 63 b4 d3 3d 6a 9a c4 3d 02 ab 8b bc
       0.10206558 0.103371404 0.09599765 -0.017049316
0003b0 b9 da db bb 15 81 53 3b 13 c1 83 bd dd f9 21 3d
       -0.0067094234 0.0032272984 -0.0643331 0.03954493
0003c0 94 58 a1 bd fa 35 48 3d c8 19 92 3d 0b df 42 3d
       -0.07878223 0.0488796 0.07133824 0.04757599
0003d0 57 e7 32 bd 4a 69 ca bc 9a 67 c6 bd 63 c7 26 3d
       -0.043677654 -0.024708409 -0.09687729 0.040717494
0003e0 41 7c c7 bd fa ea 7f bd 46 45 9f 3d e4 88 da bd
       -0.097404964 -0.06247995 0.07776885 -0.10670641
0003f0 93 7a bb 3d a8 9b 53 bd b5 3a 82 bb c0 83 d8 bd
       0.091542386 -0.051662117 -0.0039742836 -0.10572004

forecaster.cross_attn.in_proj_bias f4 [384]
000000 93 7e 04 bb 58 fb ea 38 41 07 94 b9 ff cf 04 bb
       -0.0020217046 0.00011204806 -0.00028234164 -0.0020265577
000010 9d 05 9c ba 4f 21 85 3b 56 d4 df ba 32 bf f9 38
       -0.0011903528 0.0040628086 -0.0017076831 0.00011908858
000020 e4 db 87 39 fb 60 0a bb 6b bb 8b bb 7c db 3e 3b
       0.00025913038 -0.0021114934 -0.0042642853 0.0029122522
000030 9f f9 39 bc 74 c6 e9 ba 09 13 f3 3b 01 d7 ae ba
       -0.011351018 -0.0017835633 0.0074180407 -0.0013339223
000040 21 61 a5 3a 7b 23 4b 3b 58 a9 02 bb f3 cb 36 bb
       0.0012617448 0.003099649 -0.0019937363 -0.002789256
000050 7e 2c 00 3b bc 16 a9 b9 6b 88 a3 3a 7b c3 51 ba
       0.001955777 -0.0003225113 0.0012476569 -0.0008001846
000060 24 be ab 3a 5e 7a a1 ba 6f 9a c5 3a 1c 15 16 ba
       0.0013102931 -0.0012319793 0.0015075932 -0.00057251914
000070 62 c1 95 3a 48 b8 92 3a 16 73 dd 3a aa be 3b ba
       0.001142543 0.0011193836 0.001689526 -0.0007161895
000080 c2 a5 6b b9 7b ca 96 ba 5c ee 34 3a f4 91 02 bb
       -0.00022473096 -0.0011504436 0.00069019734 -0.001992342
000090 27 00 fa ba 18 cf 99 3a 06 c1 00 3a ae 88 1c ba
       -0.0019073532 0.0011734692 0.0004911575 -0.00059712946
0000a0 59 66 e0 ba c6 af a1 ba 2a 69 e3 3a 21 6f bd b8
       -0.0017120346 -0.001233571 0.0017350067 -9.032922e-05
0000b0 88 59 77 3a 67 cd 31 3a a0 48 8c 3a 2a b4 7b 3a
       0.00094356434 0.00067826215 0.0010702796 0.00096017367
0000c0 6b 12 84 ba e4 c8 45 3c 99 b1 6f 3a ef 96 58 3b
       -0.001007629 0.012071822 0.00091435906 0.0033048948
0000d0 d8 cf d5 b8 e7 54 76 3a d4 b2 4c 3b 14 37 88 ba
       -0.000101953454 0.00093968067 0.003123452 -0.0010392391
0000e0 00 b9 02 3a 25 f0 3a 39 ed 2f 25 ba db ce 02 b9
       0.00049866736 0.00017827803 -0.0006301392 -0.00012474826
0000f0 b2 8f 38 3c e2 79 83 38 a1 71 2d 3b b6 a6 c3 3a
       0.011264728 6.269269e-05 0.0026465433 0.0014927003
000100 e0 4c 6d b8 8c e8 0a 3b 86 44 80 bb 19 a1 20 3c
       -5.65768e-05 0.0021195738 -0.0039144186 0.009804034
000110 fe 70 e8 ba 35 dc 2c 3b 40 a3 b4 ba 55 84 2a bc
       -0.001773387 0.002637637 -0.0013781562 -0.010407527
000120 a0 65 46 bc 19 ad a5 ba 11 39 ae ba fe dd 5b 3c
       -0.01210919 -0.0012640088 -0.0013292154 0.013419626
000130 5a 04 24 ba 4b 20 8e 38 e7 90 bf ba ea e8 f7 38
       -0.0006256752 6.777103e-05 -0.0014615328 0.000118212614
000140 a2 88 dd bb ed 01 ad 3a 49 5e 3d 3a 98 79 03 3b
       -0.0067606727 0.0013199426 0.00072238274 0.002006149
000150 4c b7 c3 ba 1f 58 ab ba 4c 04 19 3a 2e e8 ed 3a
       -0.0014931946 -0.0013072527 0.0005837127 0.001815086
000160 43 c7 0f 3b 3e 18 34 3a 79 0a 17 bb 9e 9a 8a bb
       0.0021938838 0.00068700674 -0.0023047014 -0.0042298576
000170 0b 70 b2 b9 12 fa 3a ba ea 6a f9 3b 63 c4 1b 3a
       -0.00034034284 -0.00071326003 0.007611622 0.00059420447
000180 d3 5a ba b9 e2 07 12 39 92 da d2 3a e4 06 48 bc
       -0.00035544354 0.00013926582 0.0016086868 -0.012208674
000190 90 8b 89 bb 31 aa be 3a d7 42 a8 ba 82 bb 40 3a
       -0.0041975453 0.0014546571 -0.0012837303 0.00073521596
0001a0 75 0f 29 ba c6 9c 28 3a 3d 0e 50 3a 16 de a9 ba
       -0.00064491417 0.00064320525 0.0007936692 -0.0012959864
0001b0 2e 20 44 bb 4a e9 1c bc 3f 90 96 3a 32 6b 48 ba
       -0.0029926407 -0.009577105 0.001148708 -0.0007645368
0001c0 9c 22 05 ba b8 f3 2e ba ee 15 aa b8 ed e7 4c ba
       -0.00050787046 -0.000667389 -8.1103164e-05 -0.0007816542
0001d0 e6 54 89 ba 1f 93 88 b9 3a a6 32 ba e1 0c 84 3c
       -0.0010477572 -0.00026049555 -0.0006814931 0.016119422
0001e0 50 4f 1c 3a 1c 66 f3 3b d2 7e b1 b8 32 c6 2f ba
       0.0005962746 0.007427944 -8.46364e-05 -0.00067052536
0001f0 66 a3 b1 39 c0 4a a9 b9 fa d7 a6 39 47 d9 10 b9
       0.00033881812 -0.00032289885 0.00031822902 -0.00013813852
000200 9d 06 00 3a 59 03 02 3a 06 88 70 ba d0 d1 29 ba
       0.0004883798 0.0004959605 -0.00091755425 -0.0006478103
000210 94 12 04 ba c1 0c 02 b9 24 0b 90 ba 15 5c 5e 3a
       -0.0005038169 -0.00012402517 -0.0010989648 0.0008482349
000220 9d 00 64 3a c0 74 6f ba 18 21 03 3a 31 5f 0f 3a
       0.0008697601 -0.00091345236 0.0005002185 0.0005469202
000230 9e 94 30 3a d0 98 75 ba 87 31 9e b9 f3 56 12 3a
       0.0006736013 -0.0009368779 -0.0003017301 0.00055824145
000240 e5 c0 3a 3a f7 0f 95 b9 63 e8 2d ba 24 80 9b b9
       0.00071240804 -0.0002843139 -0.00066340546 -0.00029659376
000250 8e 17 c6 b9 f5 3c af b9 54 0c 3b 3a c0 a1 6e ba
       -0.00037783053 -0.00033424018 0.0007135321 -0.0009103082
000260 e9 4e 2a 3a b0 7c 40 ba 06 4d 53 3a 45 6a 4b ba
       0.0006496744 -0.00073427986 0.00080604886 -0.0007759671
000270 ca 0f 42 3a ab fe 01 3a b7 f9 12 3a 6f e6 01 ba
       0.00074028654 0.0004958908 0.00056066684 -0.0004955297
000280 48 2f 87 38 fa 73 09 ba 05 d8 5b b9 a8 63 dc b9
       6.4461085e-05 -0.0005243417 -0.00020965941 -0.0004203592
000290 1f 17 80 39 52 cf f3 39 7f 9b 2c b9 8e 54 f5 b9
       0.0002443129 0.00046503037 -0.00016461125 -0.0004679304
0002a0 1e 35 4e b9 61 1b 3c 39 5b 35 ea 39 bf a1 e1 b9
       -0.00019665479 0.00017939277 0.0004467171 -0.00043035854
0002b0 8f 60 35 39 23 95 9c 38 8a 6e aa 39 cb 5f c1 b8
       0.00017297476 7.4664385e-05 0.00032507285 -9.2208e-05
0002c0 cd 39 9e 39 ec e8 2d 3a 85 5b 16 b9 e1 74 96 36
       0.00030179173 0.00066341343 -0.00014339208 4.483955e-06
0002d0 77 85 83 39 05 6c 20 38 5b d2 e0 36 3b 6b 5c b9
       0.00025085706 3.8247574e-05 6.700209e-06 -0.00021020781
0002e0 a9 99 96 b9 e6 53 43 3a 92 57 f6 b9 84 69 bd 38
       -0.00028724715 0.00074511615 -0.0004698602 9.031876e-05
0002f0 88 99 48 3a 5b 1f 08 3a 02 f3 4e 39 15 36 f9 39
       0.00076522725 0.00051926606 0.00019736218 0.00047533275
000300 d6 4b 8c ba be 37 b8 b9 69 fe 42 3a 8b 3e 1c 3a
       -0.0010703753 -0.00035136746 0.0007438423 0.00059602474
000310 15 ab 71 ba 50 12 9e 39 00 16 74 ba f0 8d 6f b9
       -0.00092189136 0.00030149752 -0.00093111396 -0.00022845692
000320 d6 e6 d8 ba ae 60 4f b9 58 4c 2d ba 72 c6 1e ba
       -0.0016548287 -0.00019777074 -0.00066108024 -0.00060567923
000330 88 e5 8d ba 77 2d 5b 39 27 14 81 b9 73 5b 51 3a
       -0.0010825852 0.00020902405 -0.00024619812 0.0007986344
000340 97 b7 70 3a 3c de 35 3a 94 29 54 ba cf 6e c8 3a
       0.00091826305 0.00069377176 -0.0008093354 0.0015291813
000350 1b 32 6a ba 87 40 85 3a 47 fe 1a ba 9a b2 f9 39
       -0.0008933858 0.0010166325 -0.0005912524 0.0004762605
000360 75 6e 2d 3a ff 50 8d 39 68 71 eb 39 48 fd 62 3a
       0.00066158856 0.00026953963 0.00044907187 0.00086589577
000370 cd 2a 4a ba 07 f6 85 b9 e8 cf 45 ba 5a 23 6c 3a
       -0.0007712066 -0.00025551041 -0.0007545934 0.00090079533
000380 f5 b3 11 b9 88 65 dc 38 7b 31 15 39 0e 78 0a 3a
       -0.00013895317 0.00010509329 0.0001422818 0.0005282172
000390 fc ba 12 b9 78 5c b9 39 31 e3 0f b9 a1 9f 07 3a
       -0.00013993302 0.00035354844 -0.00013722178 0.0005173628
0003a0 fe 66 f7 39 c3 bd 46 ba b8 03 eb b9 74 74 fb b9
       0.00047188246 -0.0007581377 -0.00044825464 -0.00047961215
0003b0 0b 58 e9 b7 4a f5 38 b8 ec 0b d1 39 c5 7b 20 39
       -2.7816763e-05 -4.409746e-05 0.0003987247 0.00015304897
0003c0 30 ee 20 ba 0e b7 81 b9 2d 37 87 b9 68 b5 7a 3a
       -0.00061390083 -0.00024741184 -0.00025790316 0.0009563775
0003d0 2f 34 4f b8 bc bb eb 39 43 ef 3f ba 32 4e 1a ba
       -4.9401246e-05 0.00044962566 -0.00073217246 -0.0005886286
0003e0 c6 de ca b8 86 d8 6a ba 2e b6 65 b9 a6 56 c5 b9
       -9.6736054e-05 -0.0008958656 -0.00021907009 -0.00037639326
0003f0 c2 1b d5 b9 29 73 f8 39 cc 03 90 ba 0e f2 b1 39
       -0.00040647207 0.00047388047 -0.001098746 0.00033940416

forecaster.cross_attn.out_proj.weight f4 [128, 128]
000000 5a 90 61 bd 83 3a c9 3c f6 18 19 3d a8 28 5d 3d
       -0.055069305 0.024564033 0.03737732 0.05399385
000010 57 03 92 3d f8 89 bd bd 3d 9d 7d bd 7f 41 8f 3d
       0.07129543 -0.09254831 -0.061917532 0.06994914
000020 33 6d 0e bd fe 0f 37 bd ab 49 b6 3c b4 d0 3f 3d
       -0.03477211 -0.044692986 0.022251924 0.046829894
000030 f7 80 84 3d ad 2b 99 3d bd 82 96 bd c5 a0 ef bc
       0.064699106 0.074790336 -0.07349155 -0.029251466
000040 63 ee 00 3d 79 f3 76 bd 09 88 ce bb ca 2f 4e 3d
       0.031477343 -0.060290787 -0.0063028377 0.050338544
000050 8d c5 1b 3d 4c 26 62 bd 65 62 45 3d e5 d6 1d bd
       0.038030196 -0.055212304 0.04818954 -0.038535018
000060 f0 c0 45 bc 61 93 9b 3d a9 10 61 3d 5c ef 90 3d
       -0.012069926 0.0759647 0.05494753 0.07076904
000070 29 18 62 3d 9c 2e a0 3d fc 17 35 bc b2 32 9e bc
       0.055198822 0.0782139 -0.011053082 -0.019311283
000080 e4 dc 92 bd 2d 90 c3 bd e2 a8 c8 bd 5c fe 8a ba
       -0.07171038 -0.09548984 -0.09797837 -0.001060437
000090 11 ad aa 3c 4c 7b 7a bd 4b 95 b8 3d 58 29 4d 3d
       0.020834478 -0.06115274 0.090128504 0.050088257
0000a0 7b 51 99 bd d4 cf 83 bd ce 9c a2 bc 5c 56 0c bb
       -0.07486244 -0.064361244 -0.01985016 -0.002141378
0000b0 78 04 bc bc 52 52 21 bc c4 f1 28 3d 54 2c 67 bc
       -0.02295135 -0.009846287 0.04124619 -0.01410969
0000c0 95 c7 53 bd 34 1d cb bc 9c 6f 10 3d 36 27 91 3d
       -0.051704008 -0.024794199 0.03526269 0.07087557
0000d0 13 aa cf bc ca 8e b4 bd 29 73 8c 3d cc e5 56 3c
       -0.025349652 -0.08816297 0.068579026 0.013116311
0000e0 ee 36 7f 3d 6b 48 1e 3d 9b da 65 bc d4 cf 97 3b
       0.062308244 0.038643282 -0.01402917 0.0046329293
0000f0 d1 ab a2 bd 5f c5 43 3d e6 28 b5 3d 6a 1e 7d 3d
       -0.07942928 0.04779565 0.088456914 0.061796583
000100 69 2b c8 bc ee 55 6c bd 0a 8e 95 bd b4 5a 4c bd
       -0.024434762 -0.057699136 -0.073024824 -0.04989119
000110 a3 84 95 3d 87 c7 80 3c a5 cb 56 3d 2b 61 95 3d
       0.07300689 0.015720142 0.052440304 0.07293924
000120 43 a8 bf bd a3 f1 79 bd 92 c2 1d bc c7 e5 44 bb
       -0.09358265 -0.06102146 -0.009628909 -0.0030044185
000130 54 22 26 3d ae 10 62 bd b4 4e 85 bd 67 9c c6 3d
       0.04056008 -0.05519169 -0.06509152 0.096978
000140 7a e5 06 3d c0 da 8d bd ae 33 dc bc cb 84 87 3d
       0.03293369 -0.06926489 -0.026880112 0.06617125
000150 48 22 2b 3d 95 6a 86 bd 14 82 ae bd 3d 77 01 3d
       0.04178074 -0.06563298 -0.08520904 0.031607855
000160 e4 a8 ad bd 25 17 94 3d a8 10 b6 bd c4 bb 3e bd
       -0.08479479 0.07230977 -0.08889896 -0.046565786
000170 a1 fd f7 bc 0f 6d c2 bd 1f 4f 72 3d 5a b1 1c 3d
       -0.030272307 -0.094934575 0.059157487 0.038255073
000180 94 75 27 bc da 4a 9f 3d 98 09 72 3c 0b 7d 8b bd
       -0.010220904 0.07777949 0.014772795 -0.068109594
000190 8d 07 27 bd 2b 05 95 bd 19 73 7b bd d2 e2 55 bd
       -0.040778685 -0.07276376 -0.061389063 -0.052218266
0001a0 a4 3d 40 bd a7 8e 71 bd 88 3d ad bc fe e2 01 bd
       -0.046933785 -0.058973935 -0.021147504 -0.031710617
0001b0 2c 3d 0d bd ca ec d8 3c 10 c8 08 3d 1d 05 59 bd
       -0.034482166 0.026480097 0.03339392 -0.052983392
0001c0 ae b5 3b 3d 1f 86 6c 3d 29 88 21 bc 5c 7f 4c 3d
       0.04582756 0.057745095 -0.009859123 0.049926147
0001d0 46 72 81 3d 45 7d 93 bd d2 1d a3 bd 12 97 1d 3d
       0.06320624 -0.07201628 -0.07964672 0.03847415
0001e0 3d 7f 2d bd 71 75 9b bd e0 1b ed 3c d5 37 49 bd
       -0.042357672 -0.075907595 0.028943956 -0.04912551
0001f0 7d 2f 75 3d a6 7f 2a 3d 59 3e 98 3d cd 1c 6d 3c
       0.05985974 0.04162564 0.07433767 0.014472199
000200 28 f6 89 3d 45 9e 4a bd 3b 14 30 bd 2a ea 10 bd
       0.06736404 -0.049467344 -0.042988043 -0.035379566
000210 31 3e 36 bc f7 4e 5a bd 79 47 b5 3d 20 9a 64 bd
       -0.011123226 -0.053297963 0.08851523 -0.055811048
000220 cf 16 07 3b 68 83 b7 bd f8 9b bc bd 2e bf 8a bc
       0.002061296 -0.08960611 -0.09209436 -0.016936865
000230 15 0c a6 3c 8c 78 19 3d 67 c6 ba 3d 9d 95 61 bc
       0.020269433 0.037468478 0.091198735 -0.013768581
000240 ae 1a 72 bd 5a b5 ab bd a8 e7 0a bb 79 64 44 bd
       -0.059107475 -0.083841994 -0.0021195207 -0.04794738
000250 30 1d 37 3d ec 00 e2 3c 4b b6 95 3d 26 c4 d4 3c
       0.04470557 0.02758833 0.0731016 0.025972437
000260 c2 6e 9b bd 63 ed e5 3c 95 e5 76 3d 1e a5 3a 3d
       -0.07589485 0.028067296 0.06027754 0.045567624
000270 31 9f 88 bc 70 c7 38 bb 61 e0 84 3d 26 4a 8a 3d
       -0.01667747 -0.0028195046 0.064881094 0.06752424
000280 36 4e 79 bd 24 41 0b 3d 44 2d 21 3d fa da 46 bd
       -0.060865603 0.03399767 0.03934981 -0.048548676
000290 47 df 8f 3c e8 3c 71 3d de af 83 3d 98 9c a0 3c
       0.017562522 0.058895975 0.064300284 0.01960592
0002a0 ba 95 9b bd 9f c3 8f 3d 98 5e 9c bd c1 3e 69 3d
       -0.075969175 0.07019734 -0.0763523 0.056944612
0002b0 e7 b5 e6 bc 2e 0d 97 3b b6 a5 73 3d ce a0 b0 3c
       -0.02816291 0.0046097254 0.059484206 0.021561053
0002c0 11 df 2f 3c 14 3a b3 3d 1f d0 2a 3d 12 d9 50 3d
       0.0107343355 0.08751312 0.041702386 0.050988264
0002d0 c4 35 9c 3b 4b a1 4d 3c 17 bd 8c 3c af e9 b2 bc
       0.0047671515 0.012550662 0.017180009 -0.021839945
0002e0 a9 12 2e bc a1 1a 4a 39 7c 2e 41 bc ef 97 2e bc
       -0.010624566 0.00019274141 -0.011790868 -0.010656341
0002f0 5c 8a 04 3d 4c 49 80 3d d0 52 c0 3c fb 63 06 bb
       0.032358512 0.0626398 0.023476988 -0.002050637
000300 e2 b3 60 3d 6e 1e 28 bd 56 5c 91 bd b9 1c bf bd
       0.05485905 -0.041044645 -0.0709769 -0.0933165
000310 0a a7 0f bd 6b 90 5b 3d 15 1d 4c bd 4b 3f b7 bb
       -0.03507141 0.053604525 -0.049832422 -0.005592262
000320 c8 e7 06 3d e2 6a f5 bc 50 61 f7 bc ee 06 9c bd
       0.032935888 -0.029958192 -0.03019777 -0.07618509
000330 88 11 19 3c a5 39 6b 3d a6 81 7b 3c 3a 16 62 3c
       0.009342559 0.05742802 0.015350735 0.013799245
000340 a9 9b 0c ba 7c a2 9c bd 9f da b8 bd 8b af 99 bd
       -0.00053637713 -0.07648179 -0.09026074 -0.07504185
000350 00 b6 4a 3b 9e 14 b6 bd 2f 6b a0 3d ea 1c 0d bd
       0.0030931234 -0.08890651 0.07832944 -0.034451403
000360 11 4a 37 3d 05 f5 c2 bd 38 5b 5d bd 9c 22 8b 3d
       0.04474837 -0.0951939 -0.05404207 0.067937106
000370 f7 31 24 bd cb 2f 4f bc 10 c6 0b 3d 63 16 ab bd
       -0.040086713 -0.012645672 0.034124434 -0.08353879
000380 8f 43 97 bc 5f 07 9a 3d 0e 59 79 3d 77 b6 23 3d
       -0.018464832 0.07520937 0.060875945 0.039968934
000390 8a 11 75 3c 20 96 5d 3c 42 ff fd 3c 0a 74 31 bd
       0.014957795 0.013524562 0.031005505 -0.043323554
0003a0 a6 e4 0f 3d a1 07 75 3d 7d 97 25 3d 8a 95 70 bd
       0.035130166 0.05982173 0.040427674 -0.05873636
0003b0 29 4f 16 3d 08 4a 5a bb 58 77 82 bd f5 f0 72 bc
       0.036696587 -0.0033308286 -0.06370419 -0.014827956
0003c0 ec ad 90 3c 0a 3b ab bd 1c 09 8f 3b a1 c7 90 3d
       0.017661057 -0.0836087 0.0043650996 0.07069326
0003d0 4b a9 37 bd 75 80 4a 3d ba 34 fc bc f4 3b 8a 3d
       -0.044839185 0.049438912 -0.03078686 0.067497164
0003e0 a3 f5 66 bd 63 fc 4e bc 29 4a 4d bd c2 5e 58 bc
       -0.0563866 -0.012633416 -0.050119553 -0.013206186
0003f0 85 04 46 bb 7b c7 24 3d 6e 98 b5 bd 0b 37 53 3b
       -0.0030215096 0.040229302 -0.08866964 0.0032228853
