results/emotion_stage/supervised_pipeline/stage1_best.pt (torch, 325066 bytes, 14 tensors)

encoder.emotion_queries f4 [1, 6, 128]
-0.020809382 0.02300502 0.032547347 0.03467356 -0.025130885 -0.022584116 -0.011669759 0.040220056
-0.0043378505 0.019072358 0.02106895 0.0061662868 -0.017998178 0.038851634 0.012361996 -0.01572481
0.011677641 -0.020329833 -0.005948023 -0.02151902 -0.01888969 0.0136780515 -0.017829223 -0.021052849
0.0028423942 -0.0016269042 0.0023621568 -0.028680041 0.022877568 0.02967412 -0.0007402193 0.020391451
-0.0019664739 -0.024313034 -0.025157455 0.019369146 0.00019884206 0.047120534 0.0140903555 -0.019276436
0.013156241 0.007649089 -0.016618844 0.017589966 -0.025021192 0.01882378 0.00018432672 0.0042862534
0.030796789 -0.015811948 -0.041063596 -0.03598403 0.016674953 -0.00095871993 -0.03261541 -0.00096322055
0.034140017 0.0049239164 0.0017651691 0.032494687 0.001414881 0.010896125 -0.03194887 -0.024792058
0.055413358 0.037041254 -0.019713616 0.005955137 0.028963476 0.027107127 0.03134225 -0.024818186
-0.013669313 0.019275872 0.00032594503 0.0001681218 0.011150644 0.04178385 0.017144687 -0.009811509
0.01674315 0.0014291425 0.012254423 0.033256687 -0.017586123 -0.011473323 0.03654942 0.01503912
0.025797402 -0.024309173 -0.0074109402 0.0049717897 0.0060438314 0.028564496 -0.00040304923 0.0043908795
0.003081815 -0.014794453 -0.028196758 0.023989113 -0.016016994 -0.03437105 0.018010389 0.0013003848
0.032610174 -0.027556363 0.016089248 0.035573743 -0.0054666665 -0.0041262116 0.022266757 -0.007457681
0.0110758 -0.014723923 0.013289666 0.014167124 0.030873315 0.033791006 -0.013803666 -0.026648277
-0.018468233 0.019093338 -0.006519031 -0.0160309 -0.0033470718 0.041837633 -0.038776346 0.005588786
0.0077369106 -0.018940065 -0.03626146 -0.0026885055 -0.009150525 0.008672559 0.04256506 -0.0015167956
-0.0023658518 -0.0044005997 -0.010715059 -0.018671308 0.021664243 -0.011942238 -0.0149306785 0.025156967
0.028264176 -0.0053418493 -0.0034078185 -0.019943152 -0.024196928 0.0048326375 -0.041157957 -0.0005869397
-0.025511004 0.025246177 -0.015218682 -0.021900691 -0.0062335334 -0.010601685 -0.0067961887 0.012647141
-0.0008027816 0.025419611 0.029731363 -0.058973584 0.010967472 -0.012568325 0.012681161 0.0017070773
0.03712249 -0.04122065 0.013444945 -0.004077033 0.02378566 -0.026417911 -0.00045339763 -0.045754757
-0.012909718 0.015190149 -0.0045803366 0.0022956782 0.016991477 -0.006545971 -0.016080815 0.059582993
-0.02461435 0.011161012 0.026405444 0.0047782757 -0.030816961 -0.0008524461 0.012034619 -0.0069467113
-0.03193126 -0.016452776 0.014305656 -0.0049060094 0.0036562243 -0.024646925 -0.03696013 -0.0061179087
0.0017192903 -0.032620028 0.011195363 0.02876247 -0.023682566 0.003986353 -0.0037896219 0.0027161036
-0.023893734 0.012930946 0.017391168 -0.017637813 -0.017400213 0.0020076297 -0.019624809 0.008772899
0.011535104 -0.03510791 0.018622248 0.014550181 0.025069319 -0.011177606 -0.028110582 0.008509893
-0.023244692 0.020164821 -0.020408422 0.03337941 -0.006469752 0.053164102 -0.017586563 0.013920307
-0.03123251 0.00758484 -0.04388184 -0.0011791657 0.006798889 -0.014379847 0.010164488 0.0027312832
-0.010206419 0.015868682 0.0026905253 -0.014693725 0.007931692 0.034743384 -0.015707899 -0.008565438
-0.0016955748 -0.02389355 0.0044111023 -0.023678713 0.033236887 -0.045211527 0.040466066 -0.016984368
00000000: 7078 aabc 0675 bc3c 5e50 053d dd05 0e3d
00000010: 49df cdbc 5302 b9bc 8432 3fbc c9bd 243d
00000020: 8724 8ebb a23d 9c3c ca98 ac3c 900e ca3b
00000030: ea70 93bc e422 1f3d f889 4a3c 51d1 80bc
00000040: 9453 3f3c c08a a6bc a2e7 c2bb a848 b0bc
00000050: 8dbe 9abc e819 603c 970e 92bc 0677 acbc
00000060: 7647 3a3b d93d d5ba 6ace 1a3b 68f2 eabc
00000070: bd69 bb3c 2417 f33c 470b 42ba f90b a73c
00000080: f5df 00bb 212c c7bc 0217 cebc 0bac 9e3c
00000090: 4280 5039 7601 413d 3cdb 663c 9ee9 9dbc
000000a0: 468d 573c 36a5 fa3b 3e24 88bc d518 903c
000000b0: 3ef9 ccbc 5434 9a3c d447 4139 b373 8c3b
000000c0: 8c49 fc3c 0f88 81bc 4d32 28bd fe63 13bd
000000d0: e999 883c 9b52 7bba bc97 05bd a380 7cba
000000e0: 67d6 0b3d ce58 a13b 3f5d e73a 2619 053d
000000f0: 8773 b93a a985 323c d1dc 02bd b718 cbbc
00000100: 1ef9 623d 92b8 173d 737e a1bc 4f23 c33b
00000110: d044 ed3c c40f de3c bb60 003d 824f cbbc
00000120: 41f5 5fbc 6fe8 9d3c 9ae3 aa39 da49 3039
00000130: 31b1 363c 8b25 2b3d 0473 8c3c 74c0 20bc
00000140: ee28 893c 1152 bb3a c7c6 483c 2a38 083d
00000150: c610 90bc 9bfa 3bbc d8b4 153d a466 763c
00000160: 1355 d33c 0824 c7bc 79d7 f2bb 65ea a23b
00000170: 550b c63b 1700 ea3c 5a50 d3b9 5ee1 8f3b
00000180: 47f8 493b 6f64 72bc e3fc e6bc d184 c43c
00000190: 1236 83bc a8c8 0cbd 868a 933c ac71 aa3a
000001a0: 3f92 053d e2bd e1bc 99cd 833c c6b5 113d
000001b0: b921 b3bb 2c35 87bb c668 b63c 905f f4bb
000001c0: 4677 353c 9c3c 71bc e6bc 593c 3a1d 683c
000001d0: 09ea fc3c 7068 0a3d c628 62bc 7d4d dabc
000001e0: b14a 97bc a269 9c3c 989d d5bb 3c53 83bc
000001f0: 8c5a 5bbb f05d 2b3d f2d3 1ebd 2322 b73b
00000200: e985 fd3b 3228 9bbc e686 14bd a331 30bb
00000210: 15ec 15bc 5917 0e3c b358 2e3d 37cf c6ba
00000220: 680c 1bbb e832 90bb 378e 2fbc 92f4 98bc
00000230: 3679 b13c 60a9 43bc ce9f 74bc fc15 ce3c
00000240: 468a e73c ae0a afbb b555 5fbb d25f a3bc
00000250: a338 c6bc 1a5b 9e3b 3f95 28bd dbdc 19ba
00000260: 74fc d0bc 12d1 ce3c c757 79bc 1469 b3bc
00000270: ab42 ccbb b1b2 2dbc 90b2 debb f435 4f3c
00000280: c371 52ba ca3c d03c 308f f33c 498e 71bd
00000290: e9b0 333c 60eb 4dbc a5c4 4f3c 02c0 df3a
000002a0: c10d 183d fcd6 28bd 3048 5c3c a298 85bb
000002b0: 25da c23c 606a d8bc 00b6 edb9 5769 3bbd
000002c0: 4883 53bc 1ae0 783c a616 96bb 1773 163b
000002d0: b631 8b3c 967f d6bb eabb 83bc 4c0d 743d
000002e0: 09a4 c9bc addc 363c 3b50 d83c 1593 9c3b
000002f0: da73 fcbc b076 5fba da2c 453c 3da1 e3bb
00000300: 5aca 02bd f9c7 86bc 4562 6a3c 97c2 a0bb
00000310: 449d 6f3b 59e8 c9bc 8163 17bd bd78 c8bb
00000320: cf59 e13a 949c 05bd c16c 373c 469f eb3c
00000330: f101 c2bc f49f 823b 4e5b 78bb a800 323b
00000340: cbbc c3bc 52dc 533c ec77 8e3c 2d7d 90bc
00000350: e48a 8ebc 7092 033b 35c4 a0bc 35bc 0f3c
00000360: bcfd 3c3c 50cd 0fbd af8d 983c e263 6e3c
00000370: 2c5e cd3c 4722 37bc 2a48 e6bc 146d 0b3c
00000380: a76b bebc b230 a53c 902f a7bc d9b8 083d
00000390: 3700 d4bb 9ac2 593d b211 90bc 0012 643c
000003a0: 52db ffbc 408a f83b 72bd 33bd 3c8e 9aba
000003b0: 37c9 de3b 7399 6bbc f488 263c 54ff 323b
000003c0: d338 27bc 0aff 813c 8653 303b f3bd 70bc
000003d0: edf3 013c 144f 0e3d daad 80bc 0d56 0cbc
000003e0: 0d3e deba 68bc c3bc 028b 903b dcf9 c1bc
000003f0: 6723 083d b92f 39bd bfbf 253d cd22 8bbc

encoder.proj.weight f4 [128, 31]
0.117178686 0.13556619 -0.056687098 0.14839643 -0.05603386 0.020161385 -0.09619067 0.10976237
0.14367114 -0.14276813 0.16540027 0.04277874 0.114369094 0.0025679118 0.113699466 0.0022153845
0.13710065 0.0046951277 -0.073793046 0.023256946 -0.10589743 0.00026080664 -0.04961161 0.14252824
-0.16514494 -0.10620496 -0.055621184 -0.12385458 0.025775796 -0.17098953 0.16041312 -0.15359905
0.14240104 0.034678746 -0.0602487 0.10888334 0.022022154 0.14236961 0.022416314 -0.060307708
0.04525981 -0.0510171 0.073414795 0.15049563 0.0923068 -0.077236146 0.10382107 0.024000151
0.08708573 -0.11480696 -0.17288108 -0.07438678 -0.13131328 0.16028711 0.06470935 0.06134262
0.043760244 0.0044736345 0.13127007 -0.14757237 0.023281261 -0.14107934 0.05759151 -0.06619539
0.05128413 -0.039610486 0.14677134 -0.10279542 -0.10466635 -0.110308394 0.16883422 0.068377964
0.15664338 -0.16295967 -0.17489684 -0.13563825 -0.13869832 0.05425796 0.04383919 0.15502074
-0.10049942 -0.1143207 0.1005949 -0.07625403 0.10734001 -0.044754017 0.10484014 -0.13730526
-0.08782112 0.056201838 0.038679197 -0.03985478 0.11427896 0.12301619 -0.13320075 -0.09886329
0.16339108 -0.061452705 -0.06286812 -0.17561817 -0.10009399 0.044840347 -0.024962218 -0.1285952
0.0063821822 -0.11950454 -0.14476971 -0.11285052 -0.17128704 -0.10749603 0.1833611 0.039031126
0.055282388 -0.16393018 -0.12190842 -0.06618444 0.021377914 -0.15125377 -0.07065058 -0.11065761
0.0037864314 -0.05871682 -0.009967013 -0.102766074 -0.12386539 -0.106976666 -0.06397645 -0.14245161
0.14973526 -0.04022473 0.1457201 0.0647695 -0.15795144 0.1162203 -0.041353736 -0.06027595
-0.14872201 -0.16913904 0.045062795 -0.045497797 0.0751891 -0.1449464 0.13867305 -0.13609529
-0.031735368 0.03542587 0.091311686 0.14250512 0.16592187 -0.13992153 0.042667896 -0.07462846
-0.012015013 -0.1428484 0.18495756 -0.13913256 0.0872914 0.054893326 0.047625337 -0.10785719
0.15469615 0.031428948 0.031344045 -0.16160634 0.07161552 -0.037710276 -0.09130528 0.14688595
0.038993523 -0.11542168 -0.10762417 -0.027501114 0.09697726 -0.03988129 -0.10402019 -0.07081822
-0.12890437 0.078224115 0.15196216 -0.18201026 0.028665204 0.091753565 0.031359345 -0.071655676
0.099081665 0.0927783 0.07750644 -0.020302355 -0.0354001 0.027010025 -0.02387043 -0.057325616
0.11116317 0.15940775 -0.02127373 -0.044423316 0.0059099854 -0.0075768987 0.046054136 0.05065461
-0.16127907 -0.064999424 0.15288581 0.0780525 -0.009695045 -0.09344352 -0.09961588 -0.16828653
-0.062026683 0.057661753 0.117407426 0.08583001 -0.14629447 -0.105961524 -0.043431513 0.18511298
0.004562628 -0.0500504 0.07286604 -0.07076041 -0.114243165 0.13300064 -0.07669351 -0.028104598
-0.18769072 0.12550423 0.14235258 0.06692511 -0.12497325 -0.17641868 -0.14279741 0.14682257
0.10010875 0.15066056 0.08836314 0.04343536 -0.013091522 -0.13949606 -0.14820617 -0.17186913
0.069541045 -0.08418918 -0.032185677 -0.10695945 -0.039241027 -0.11163751 -0.13173316 0.073363736
-0.06661733 0.10737844 -0.062187392 -0.14021538 -0.040368136 -0.1006472 -0.06596913 -0.16143484
00000000: 61fb ef3d ddd1 0a3e bb30 68bd 3cf5 173e
00000010: c383 65bd 7d29 a53c 9dff c4bd 18cb e03d
00000020: 871e 133e cf31 12be b05e 293e c338 2f3d
00000030: 583a ea3d 694a 283b 44db e83d fc2f 113b
00000040: 1d64 0c3e 96d9 993b cf20 97bd 5a85 be3c
00000050: c0e0 d8bd e0bc 8839 8b35 4bbd ecf2 113e
00000060: c11b 29be fc81 d9bd 0ad3 63bd 78a7 fdbd
00000070: c327 d33c e117 2fbe 5643 243e 1249 1dbe
00000080: 94d1 113e 4d0b 0e3d 57c7 76bd 3bfe de3d
00000090: ce67 b43c 57c9 113e 6ba2 b73c 3705 77bd
000000a0: 5a62 393d 4ff7 50bd 7f5a 963d 871b 1a3e
000000b0: 590b bd3d fc2d 9ebd 24a0 d43d f79b c43c
000000c0: 015a b23d e91f ebbd bd07 31be 1958 98bd
000000d0: fd76 06be 4e22 243e 5686 843d 6642 7b3d
000000e0: f13d 333d 9197 923b a96b 063e 361d 17be
000000f0: 58b8 be3c 1a77 10be 13e5 6b3d 7391 87bd
00000100: 4f0f 523d 9b3e 22bd 3a4b 163e 6886 d2bd
00000110: 505b d6bd 5ee9 e1bd e1e2 2c3e bf09 8c3d
00000120: 1f67 203e e6de 26be 2818 33be c1e4 0abe
00000130: ef06 0ebe 983d 5e3d b990 333d c2bd 1e3e
00000140: a4d2 cdbd f920 eabd b304 ce3d 132b 9cbd
00000150: 14d5 db3d fd4f 37bd 6db6 d63d c099 0cbe
00000160: 8fdb b3bd e633 663d 146e 1e3d c43e 23bd
00000170: 160b ea3d eaef fb3d c765 08be d678 cabd
00000180: fe4f 273e d5b5 7bbd 00c1 80bd 40d5 33be
00000190: 14fe ccbd 83aa 373d 917d ccbc 76ae 03be
000001a0: a021 d13b ccbe f4bd 833e 14be 2c1e e7bd
000001b0: df65 2fbe e126 dcbd 03c3 3b3e 1adf 1f3d
000001c0: c96f 623d 50dd 27be 1fab f9bd b58b 87bd
000001d0: bc20 af3c 45e2 1abe 40b1 90bd 75a0 e2bd
000001e0: c725 783b 0c81 70bd af4c 23bc 0577 d2bd
000001f0: 23ad fdbd 9516 dbbd 1606 83bd d6de 11be
00000200: 3354 193e b0c2 24bd a637 153e dfa5 843d
00000210: 06be 21be e904 ee3d 8962 29bd eae3 76bd
00000220: 954a 18be c932 2dbe c493 383d e65b 3abd
00000230: befc 993d d46c 14be 4f00 0e3e 905c 0bbe
00000240: f2fc 01bd b81a 113d 9f01 bb3d ddec 113e
00000250: 6ce7 293e 9747 0fbe 88c4 2e3d ced6 98bd
00000260: 9eda 44bc da46 12be 8465 3d3e c478 0ebe
00000270: d5c5 b23d d3d7 603d c912 433d 3be4 dcbd
00000280: ab68 1e3e a4bb 003d 9d62 003d 227c 25be
00000290: 28ab 923d 1776 1abd 43fe babd 4569 163e
000002a0: acb7 1f3d 3462 ecbd 106a dcbd 044a e1bc
000002b0: 049c c63d 905a 23bd 8a08 d5bd 2509 91bd
000002c0: 82ff 03be f733 a03d f89b 1b3e e660 3abe
000002d0: 4ad3 ea3c 4be9 bb3d a872 003d 36c0 92bd
000002e0: 54eb ca3d 8d02 be3d b2bb 9e3d 2051 a6bc
000002f0: b2ff 10bd 2144 dd3c ec8b c3bc 44ce 6abd
00000300: 84a9 e33d c93b 233e 3f46 aebc 39f5 35bd
00000310: 8da8 c13b a247 f8bb 43a3 3c3d 357b 4f3d
00000320: 5726 25be 6b1e 85bd 198e 1c3e fdd9 9f3d
00000330: f7d7 1ebc 515f bfbd 6903 ccbd 4e53 2cbe
00000340: b10f 7ebd bb2e 6c3d 4e73 f03d a5c7 af3d
00000350: 38ce 15be 5b02 d9bd 3ee5 31bd 428e 3d3e
00000360: 1982 953b a601 4dbd ca3a 953d d5ea 90bd
00000370: 52f8 e9bd 5231 083e 7d11 9dbd 9d3b e6bc
00000380: ff31 40be 2e84 003e e0c4 113e 0810 893d
00000390: faf1 ffbd 19a7 34be 7c39 12be a858 163e
000003a0: d105 cd3d c346 1a3e bcf7 b43d 47e9 313d
000003b0: d37d 56bc 0ed8 0ebe 5cc3 17be 76fe 2fbe
000003c0: 896b 8e3d 606b acbd 21d5 03bd 8e0d dbbd
000003d0: 33bb 20bd 35a2 e4bd 0fe5 06be ba3f 963d
000003e0: ab6e 88bd 3ae9 db3d 35b8 7ebd 9f94 0fbe
000003f0: 0f59 25bd 1f20 cebd d31a 87bd 2d4f 25be

encoder.proj.bias f4 [128]
-0.09798825 0.02940614 0.033654682 0.08674772 -0.050538275 -0.024748737 -0.1482869 0.09890285
0.1435327 0.07448218 0.09777732 0.10832877 0.16269837 0.042999543 0.07442417 0.048652757
-0.08859094 0.063294224 0.05593578 -0.11617301 -0.066723056 -0.105791375 -0.10746356 0.1166547
0.15106568 -0.024581838 0.072818436 -0.044564914 0.05722157 -0.019302709 -0.09124931 -0.06118014
0.171608 0.040167175 -0.09841179 0.03757983 -0.18561725 0.017405562 0.12437629 0.041762993
0.039773427 -0.15757272 -0.018789746 0.117048495 -0.14958796 -0.07957059 0.105455704 0.051994532
0.07546058 -0.16426198 0.11461192 -0.043268837 0.023471134 0.13691472 -0.17061728 0.057205863
-0.16265315 0.12881114 0.04875108 0.02422537 -0.07635695 0.06391158 -0.10267821 0.02526387
0.1399923 -0.15382461 -0.03865918 0.037909795 0.029751858 -0.0048736124 0.15287474 -0.051293656
0.049969662 0.08225262 -0.03927419 0.10708432 0.11002638 0.061530743 -0.043998566 0.15106477
-0.09811823 0.053422965 0.04779967 0.11482411 -0.14340921 0.014181003 -0.08838059 0.09480464
0.0721142 -0.1547074 0.000120141274 0.03805332 0.08026648 0.15322827 0.089404784 0.03382347
0.09963164 -0.1770186 0.106661454 -0.021811565 0.100635014 0.050139796 0.0017504465 0.11277046
-0.08977656 0.030841172 0.09348188 -0.0719354 0.06825192 -0.1786772 -0.095266305 0.0696452
0.10141353 -0.18008581 0.06501431 0.0024737925 0.18673073 -0.18804722 -0.034090776 -0.11002473
-0.08990699 -0.028756544 -0.1514544 0.13601136 -0.058221508 0.0694168 -0.08772925 -0.011206887
00000000: 10ae c8bd 25e5 f03c 7ed9 093d caa8 b13d
00000010: 3901 4fbd ddbd cabc 85d8 17be 948d ca3d
00000020: 3cfa 123e 1d8a 983d 7a3f c83d 79db dd3d
00000030: 679a 263e 4a20 303d b36b 983d 1d48 473d
00000040: 2b6f b5bd 67a0 813d eb1c 653d 1dec edbd
00000050: 19a6 88bd 26a9 d8bd db15 dcbd a9e8 ee3d
00000060: f6b0 1a3e da5f c9bc d521 953d b389 36bd
00000070: 2a61 6a3d b720 9ebc ebe0 babd 0798 7abd
00000080: 02ba 2f3e 5686 243d 1f8c c9bd 4fed 193d
00000090: 7312 3ebe 1c96 8e3c ffb8 fe3d ac0f 2b3d
000000a0: 76e9 223d be5a 21be f4ec 99bc 1fb7 ef3d
000000b0: 962d 19be e8f5 a2bd 29f9 d73d 38f8 543d
000000c0: 148b 9a3d 4b34 28be a8b9 ea3d aa3a 31bd
000000d0: 8946 c03c 5f33 0c3e 4cb6 2ebe b250 6a3d
000000e0: 8c8e 26be 11e7 033e 36af 473d 4874 c63c
000000f0: 0861 9cbd 13e4 823d f448 d2bd 2df6 ce3c
00000100: 245a 0f3e 3384 1dbe 1759 1ebd 4d47 1b3d
00000110: 2bba f33c d3b2 9fbb 328b 1c3e 4c19 52bd
00000120: fdac 4c3d 1074 a83d f9dd 20bd 064f db3d
00000130: 8355 e13d a907 7c3d d737 34bd b9b0 1a3e
00000140: 36f2 c8bd 0ad2 5a3d 96c9 433d e728 eb3d
00000150: ddd9 12be 7057 683c e200 b5bd ef28 c23d
00000160: 9cb0 933d 9e6b 1ebe 5bf4 fb38 ccdd 1b3d
00000170: c162 a43d dfe7 1c3e db19 b73d 7b8a 0a3d
00000180: ac0b cc3d 5d44 35be 5271 da3d 2bae b2bc
00000190: bb19 ce3d 635f 4d3d 3d6f e53a 33f4 e63d
000001a0: c6dc b7bd a0a6 fc3c 6e73 bf3d de52 93bd
000001b0: aac7 8b3d 28f7 36be fb1a c3bd 25a2 8e3d
000001c0: e6b1 cf3d 6a68 38be 3926 853d 5a1f 223b
000001d0: 5736 3f3e 738f 40be c5a2 0bbd a554 e1bd
000001e0: 2821 b8bd d892 ebbc dd16 1bbe 9046 0b3e
000001f0: ad79 6ebd 652a 8e3d 65ab b3bd 179d 37bc

encoder.norm_kv.weight f4 [128]
1.0068318 1.0262495 1.015114 1.0246252 1.014559 1.0418584 1.0116795 1.031266
1.0092561 1.0035937 1.0136677 1.0120491 1.0072088 1.0131738 1.0023721 1.0052795
1.0117145 1.0082082 1.0034194 1.0097308 1.0135419 1.0031265 1.0038784 1.0042927
0.9997188 1.0105188 1.004444 1.006423 1.0058663 1.004885 1.0039598 1.0017432
1.0052395 0.9936286 1.011266 1.0029138 0.998762 1.0096408 1.0076497 1.0126948
1.0050149 0.99857783 1.0067496 1.0074546 1.011501 0.9966511 0.99569094 1.0177691
1.0035536 1.0002362 1.003131 1.0089889 1.0020753 0.9979088 0.99905795 1.0141022
1.013418 0.9989427 1.0234723 1.0019104 1.0097436 1.0001851 1.015104 0.99787384
1.0057603 1.011056 1.0069418 1.0072788 1.0122384 1.0101392 1.0002776 1.0024756
0.9924662 1.0041816 1.0020869 1.0050429 1.0037733 1.0046017 1.00374 0.9991983
1.0053954 1.0069987 1.0013399 0.9962147 1.006542 0.9980226 0.9998513 0.99709344
0.9997843 1.0006772 1.013525 1.0080824 1.0124439 1.0121287 1.009597 1.0041004
1.0014876 1.005537 0.9985478 1.0131038 1.0146081 1.0037483 0.9986554 1.0055976
1.0127938 1.0052283 1.0089979 1.0108461 1.013626 0.99639726 1.0005556 0.9993992
1.0059729 1.0076557 1.004915 1.0008551 0.992146 1.0055645 1.0033525 1.0152521
0.9988166 0.99801666 0.98952997 1.0152771 0.9997554 1.0036191 1.0015538 1.0048761
00000000: dddf 803f 255c 833f 41ef 813f eb26 833f
00000010: 12dd 813f 9e5b 853f b77e 813f 8600 843f
00000020: 4e2f 813f c275 803f ddbf 813f d38a 813f
00000030: 38ec 803f aeaf 813f bb4d 803f 00ad 803f
00000040: dc7f 813f f70c 813f 0c70 803f dc3e 813f
00000050: bebb 813f 7366 803f 167f 803f aa8c 803f
00000060: 92ed 7f3f ae58 813f 9f91 803f 78d2 803f
00000070: 3ac0 803f 12a0 803f c181 803f 1f39 803f
00000080: b0ab 803f 725e 7e3f 2a71 813f 7b5f 803f
00000090: deae 7f3f e93b 813f aafa 803f fc9f 813f
000000a0: 54a4 803f cca2 7f3f 2cdd 803f 46f4 803f
000000b0: dd78 813f 8724 7f3f 9ae5 7e3f 4246 823f
000000c0: 7274 803f bd07 803f 9966 803f 8c26 813f
000000d0: 0144 803f f376 7f3f 43c2 7f3f 1ace 813f
000000e0: aeb7 813f b5ba 7f3f 2401 833f 9a3e 803f
000000f0: 473f 813f 1106 803f eeee 813f a974 7f3f
00000100: c1bc 803f 486a 813f 78e3 803f 83ee 803f
00000110: 0791 813f 3e4c 813f 1909 803f 1f51 803f
00000120: 4412 7e3f 0689 803f 6244 803f 3fa5 803f
00000130: a57b 803f ca96 803f 8d7a 803f 76cb 7f3f
00000140: ccb0 803f 55e5 803f e82b 803f ed07 7f3f
00000150: 5ed6 803f 697e 7f3f 41f6 7f3f 8441 7f3f
00000160: ddf1 7f3f 3116 803f 30bb 813f d808 813f
00000170: c397 813f 6f8d 813f 793a 813f 5d86 803f
00000180: bf30 803f 70b5 803f d4a0 7f3f 63ad 813f
00000190: aede 813f d37a 803f e1a7 7f3f 6cb7 803f
000001a0: 3aa3 813f 52ab 803f d826 813f 6863 813f
000001b0: 7fbe 813f e413 7f3f 3512 803f a0d8 7f3f
000001c0: b8c3 803f ddfa 803f 0ea1 803f 051c 803f
000001d0: 48fd 7d3f 56b6 803f db6d 803f c8f3 813f
000001e0: 72b2 7f3f 057e 7f3f d651 7d3f 9af4 813f
000001f0: f8ef 7f3f 9776 803f ea32 803f c89f 803f

encoder.norm_kv.bias f4 [128]
0.0052951174 -0.0016632883 -0.0023331486 0.004072415 0.0011602994 0.0031594671 -0.0024719373 -0.0032874902
0.001083368 0.0053228615 0.00052697223 0.0017337656 0.002030581 -0.0030473657 0.0055993847 -8.910805e-05
0.0014701196 0.0009086345 -0.005829897 0.003572729 -0.0016537067 -4.8611837e-05 -0.002750346 -0.0026799166
0.0007583863 -0.006863415 -0.0013256038 0.002926611 0.002747225 -0.004748202 0.006194534 0.005422399
0.0026325588 0.002731994 -0.002343366 0.00073647074 -0.0022927867 0.007507879 0.0016479148 0.012120284
0.0022702676 0.0037957537 0.008932968 -0.005240845 -0.011121654 -0.0053846906 -0.0015473935 0.002393342
0.0043646423 -0.002710404 -0.0021990805 0.0053593107 -0.0022903425 -0.0014393871 -0.004623636 0.0034364029
0.00063060113 0.0018291932 -0.0011011726 -9.192579e-05 -0.0011818674 0.0036696533 -0.0010765912 -0.0021854138
-0.0075554852 0.0027133382 0.0026870128 0.0037655267 -0.001714215 -0.0016507052 6.188573e-05 0.00074836717
0.005777445 -0.0011836671 0.0074050217 -0.0045515327 -0.002075079 -0.0019255191 -0.0012718989 0.0006707924
-4.0835905e-05 -0.0013193258 -0.0006965322 -0.00977181 -0.004299051 0.0010738451 0.0056669726 -0.0028548322
0.0023808128 0.0012481216 0.014270854 -0.009301947 -0.0062823384 -0.002604337 0.0032445495 0.0032417588
0.0010045357 -0.0013877286 -0.007887457 0.0043027 0.0014376901 -0.0013866745 -0.00079115084 -0.00034378303
0.007022093 -0.0005239162 0.000497237 0.001222304 -0.001462286 -0.00016730349 -0.0007556654 -0.0010148842
-0.008365794 0.005559911 0.0064422204 -0.0054150075 0.0033098243 0.006101866 0.0034820414 -0.0009192133
0.0022111938 0.0013137464 0.0018941675 0.0009169257 -0.0019402086 -0.004353556 -0.0007650693 -0.0001116766
00000000: aa82 ad3b b202 daba bde7 18bb e571 853b
00000010: 3015 983a 100f 4f3b 3a00 22bb ef72 57bb
00000020: ccff 8d3a 666b ae3b 8224 0a3a 853f e33a
00000030: 7f13 053b 50b6 47bb 0b7b b73b 85df bab8
00000040: 07b1 c03a 6e31 6e3a b808 bfbb 7224 6a3b
00000050: 30c1 d8ba 90e4 4bb8 263f 34bb 8aa1 2fbb
00000060: 71ce 463a 7fe6 e0bb e2bf adba 63cc 3f3b
00000070: ca0a 343b ce96 9bbb 84fb ca3b 61ae b13b
00000080: 0287 2c3b 410b 333b 2893 19bb b70f 413a
00000090: 9442 16bb a704 f63b d8fe d73a 2894 463c
000000a0: c5c8 143b 2ec2 783b 955b 123c 65bb abbb
000000b0: 9937 36bc 0f72 b0bb e9d1 caba 9ed9 1c3b
000000c0: 4605 8f3b 09a1 31bb 731e 10bb 289d af3b
000000d0: 9219 16bb d1a9 bcba df81 97bb 4635 613b
000000e0: ed4e 253a 8ac1 ef3a 3955 90ba 48c8 c0b8
000000f0: e4e8 9aba 917e 703b 681c 8dba 2939 0fbb
00000100: 0194 f7bb 43d2 313b 9818 303b 0ec7 763b
00000110: 83af e0ba 7a5c d8ba a6c8 8138 122e 443a
00000120: b950 bd3b 4725 9bba d3a5 f23b 0625 95bb
00000130: 0cfe 07bb b361 fcba d8b5 a6ba 1ed8 2f3a
00000140: 3847 2bb8 3aed acba 7c97 36ba f119 20bc
00000150: 0edf 8cbb 43c0 8c3a 03b2 b93b 2318 3bbb
00000160: 6907 1c3b 0398 a33a 4dd0 693c 3267 18bc
00000170: 13dc cdbb 86ad 2abb 82a2 543b b073 543b
00000180: a0aa 833a 72e4 b5ba 643a 01bc aafd 8c3b
00000190: e070 bc3a 13c1 b5ba 3c65 4fba c73d b4b9
000001a0: 9619 e63b 6c57 09ba 0359 023a b735 a03a
000001b0: 2daa bfba 306e 2fb9 d917 46ba dd05 85ba
000001c0: af10 09bc ea2f b63b 4319 d33b 6070 b1bb
000001d0: a3e9 583b 29f2 c73b f632 643b 5cf7 70ba
000001e0: ade9 103b 0432 ac3a b745 f83a d85d 703a
000001f0: 994e feba 46a8 8ebb ee8e 48ba eb33 eab8

encoder.norm_q.weight f4 [128]
1.0125821 1.0102801 1.0092249 1.0084139 1.0091398 1.0073012 1.0123974 1.0135739
1.009392 1.0056553 1.0116308 0.9987815 1.0079873 1.0119941 1.0069737 1.0192459
1.0084661 1.0051517 1.0135368 1.015158 1.0128452 0.98641443 1.0058727 1.0140641
1.0132177 1.0098711 1.0046511 1.0106381 1.0131935 1.0090938 0.98705274 1.0238602
1.0171739 1.0131892 1.013189 1.0143006 0.9973967 1.0192932 1.0075593 1.0103973
1.0094745 1.005523 1.0148832 1.0178016 1.0096352 1.011863 1.0038764 1.01592
1.0165782 1.0132269 1.018348 1.0107918 1.0144403 1.0051674 1.0152806 1.0200766
1.0173239 1.0092275 1.0123439 1.0112841 0.99854255 1.0162487 1.0056014 1.0134381
1.0119951 1.0205641 0.99872524 0.98594093 1.0076967 1.0127845 1.0122553 1.0142912
0.99623966 1.0096387 0.99528074 1.0055557 1.0048064 1.0118365 1.0032862 1.0034885
1.0123373 1.0128114 0.9932754 1.0078485 1.0018945 1.005868 1.0127193 0.9982593
1.0140914 1.0045022 1.0063325 1.0012257 1.0127571 0.9995601 1.0106302 1.0160562
0.9900875 1.0044228 1.0074037 1.0132164 1.0116932 1.0152045 1.0081142 1.012845
1.0071189 1.0106415 1.0118924 1.0161533 1.0106077 0.9997047 1.0138607 1.0025654
1.01889 1.0400758 1.0157793 1.0295969 1.010758 1.0121696 1.0062348 1.0229822
1.0202494 1.0016168 1.0021071 1.019742 1.0098025 1.0096807 1.0083555 1.0045904
00000000: 4a9c 813f dc50 813f 482e 813f b513 813f
00000010: 7e2b 813f 3fef 803f 3d96 813f cabc 813f
00000020: c233 813f 50b9 803f 1e7d 813f 25b0 7f3f
00000030: ba05 813f 0689 813f 84e4 803f a676 823f
00000040: 6b15 813f d0a8 803f 93bb 813f b3f0 813f
00000050: e9a4 813f a885 7c3f 70c0 803f dacc 813f
00000060: 1eb1 813f 7543 813f 6898 803f 975c 813f
00000070: 53b0 813f fc29 813f 7daf 7c3f da0d 833f
00000080: c132 823f 2fb0 813f 2db0 813f 9ad4 813f
00000090: 6455 7f3f 3378 823f b4f7 803f b354 813f
000000a0: 7636 813f fab4 803f b1e7 813f 5347 823f
000000b0: ba3b 813f ba84 813f 067f 803f ab09 823f
000000c0: 3c1f 823f 6bb1 813f 3a59 823f a061 813f
000000d0: 2ed9 813f 53a9 803f b7f4 813f df91 823f
000000e0: ab37 823f 5e2e 813f 7c94 813f c271 813f
000000f0: 7ca0 7f3f 7014 823f 8cb7 803f 57b8 813f
00000100: 0e89 813f d8a1 823f 75ac 7f3f a066 7c3f
00000110: 35fc 803f eca2 813f 9591 813f 4bd4 813f
00000120: 9009 7f3f d73b 813f b8ca 7e3f 0db6 803f
00000130: 7f9d 803f dc83 813f af6b 803f 5072 803f
00000140: 4594 813f cea3 813f 4c47 7e3f 2e01 813f
00000150: 143e 803f 48c0 803f c9a0 813f ec8d 7f3f
00000160: bfcd 813f 8793 803f 81cf 803f 2a28 803f
00000170: 06a2 813f 2ce3 7f3f 555c 813f 210e 823f
00000180: 6076 7d3f ed90 803f 9bf2 803f 13b1 813f
00000190: 2a7f 813f 39f2 813f e309 813f e8a4 813f
000001a0: 46e9 803f b35c 813f b185 813f 5011 823f
000001b0: 985b 813f a6ec 7f3f 30c6 813f 1054 803f
000001c0: fd6a 823f 3421 853f 0e05 823f d5c9 833f
000001d0: 8560 813f c68e 813f 4dcc 803f 15f1 823f
000001e0: 8897 823f fb34 803f 0c45 803f e886 823f
000001f0: 3541 813f 383d 813f cb11 813f 6b96 803f

encoder.norm_q.bias f4 [128]
0.004589475 -0.017025037 -0.00056367554 -0.006251701 0.0036535515 0.011788213 0.0077223736 -0.009085201
0.007951981 -0.0012030216 -0.0016624226 -0.004737772 0.0043101967 -0.009652691 -0.00080044795 0.017149111
-0.0034427785 0.008480564 -0.017128482 -0.0022410892 -0.0029043392 0.008864306 -0.001070375 -0.002632569
-0.01018794 0.0122244 -0.01002199 0.009252672 -0.004880441 -0.0055557406 -0.017531801 0.0008590526
0.0087314 0.011810505 0.008110097 -0.014088117 0.00039471217 0.0032660246 0.0037706213 0.013254386
0.012708422 -0.012240511 0.006234587 0.0037978806 0.0052595516 -0.01683229 0.0042805327 -0.007962916
0.0013327624 0.0074948175 0.0014417527 0.010314803 -0.005088017 0.0068245716 0.015174404 0.012927322
-0.0051943106 0.011314504 0.017016938 -0.00012162498 0.0070235184 -0.008640713 0.0056894254 -0.00072396244
-0.00013004571 0.001166784 0.013083252 -0.011627292 -0.006495517 0.0081366785 -0.011631134 -0.0015299339
0.020370353 -0.0009325281 0.002167626 0.0058637136 0.001376057 0.003077662 -0.009674145 -0.002930936
-0.018156407 0.0071197045 0.0026970892 -0.005844666 -0.017919742 -0.013405676 -0.00027328657 -0.0017605419
0.0033427582 0.0030997836 0.0077140797 0.0021750191 -0.0060330033 -0.017221225 -0.013634828 -0.01684676
-0.004182441 0.004581504 0.007643237 0.005109103 -0.0018850067 0.003465755 -0.008358442 0.016071366
-0.0075290594 0.0062419428 -0.0033303888 -0.005646365 -0.0071159517 -0.00049436366 -0.00834857 -0.006237886
-0.013919427 0.0019107425 -0.0092546 -0.012713492 -0.001350803 -0.0032173397 -0.013965493 0.005513007
0.00954969 -0.009208106 0.0021563314 -0.0029541522 0.007360339 -0.008423906 0.008074123 0.0013826477
00000000: 4f63 963b 1778 8bbc a0c3 13ba 12db ccbb
00000010: 6c70 6f3b 5923 413c f70b fd3b 18da 14bc
00000020: 0749 023c b5ae 9dba a5e5 d9ba 503f 9bbb
00000030: 8d3c 8d3b 5226 1ebc 27d5 51ba 4b7c 8c3c
00000040: 3da0 61bb 10f2 0a3c 0851 8cbc 3ddf 12bb
00000050: ba56 3ebb 983b 113c d34b 8cba 2e87 2cbb
00000060: 51eb 26bc da48 483c 4633 24bc 8598 173c
00000070: 1bec 9fbb ee0c b6bb da9e 8fbc 0b32 613a
00000080: 250e 0f3c d980 413c 36e0 043c d8d1 66bc
00000090: 5ff1 ce39 cd0a 563b 871c 773b ed28 593c
000000a0: fc36 503c 6d8c 48bc 824b cc3b dde5 783b
000000b0: 5158 ac3b dfe3 89bc b643 8c3b e476 02bc
000000c0: 16b0 ae3a 1697 f53b 31f9 bc3a 6bff 283c
000000d0: 61b9 a6bb a8a0 df3b 109e 783c 1ecd 533c
000000e0: 0935 aabb 7860 393c 1b67 8b3c ea10 ffb8
000000f0: 8b25 e63b c791 0dbc 5c6e ba3b 4cc8 3dba
00000100: e15c 08b9 c6ee 983a 235b 563c 6680 3ebc
00000110: 59d8 d4bb b44f 053c 8390 3ebc 1088 c8ba
00000120: badf a63c e774 74ba bb0e 0e3b 6524 c03b
00000130: d05c b43a 9ab2 493b 4e80 1ebc f214 40bb
00000140: bfbc 94bc 694c e93b a6c1 303b 9d84 bfbb
00000150: 6ccc 92bc 7ba3 5bbc e747 8fb9 fcc1 e6ba
00000160: 2d12 5b3b bd25 4b3b 64c6 fc3b c48a 0e3b
00000170: 80b0 c5bb 8713 8dbc 9d64 5fbc 3702 8abc
00000180: dc0c 89bb 7120 963b 1e74 fa3b 436a a73b
00000190: 5412 f7ba b821 633b d9f1 08bc 19a8 833c
000001a0: 54b6 f6bb 3689 cc3b a742 5abb 2505 b9bb
000001b0: ee2c e9bb 2f98 01ba 71c8 08bc 2e67 ccbb
000001c0: 4f0e 64bc e171 fa3a 9ba0 17bc 404c 50bc
000001d0: 6d0d b1ba 01da 52bb 86cf 64bc 74a6 b43b
000001e0: 4e76 1c3c 99dd 16bc 3d51 0d3b 739a 41bb
000001f0: 002f f13b 6c04 0abc 5449 043c f539 b53a

encoder.cross_attn.in_proj_weight f4 [384, 128]
-0.012808138 0.11248521 -0.040507756 0.09683102 0.043636248 0.08341844 -0.004520573 0.078650795
-0.0017938102 -0.007799918 -0.013556726 0.036371265 0.102978975 0.088044524 -0.05405949 -0.046077114
0.060036235 -0.046282966 -0.03627399 0.017296785 -0.068107605 -0.0728168 0.07771938 -0.10153535
-0.075551584 0.04646468 -0.016478553 0.04963325 -0.0117732035 0.0071937917 -0.027039986 0.040891558
0.021070698 -0.019511757 0.07142083 -0.06496143 -0.03125418 0.013430721 0.060095444 -0.04038596
0.014111093 -0.10107373 0.048655707 0.06861116 -0.09352058 -0.08557908 -0.004739786 0.09785061
0.043032467 0.078507476 -0.09524457 0.073775224 0.1045246 -0.08305745 0.023455124 -0.020694321
0.110004134 -0.05296689 -0.10678645 -0.08269565 0.08872916 0.03620662 -0.103080064 -0.09424245
0.062280055 -0.050263874 -0.074710675 -0.051332403 -0.038071 -0.06484641 -0.04567522 0.004612128
0.018880684 0.09267523 -0.09222311 -0.027979651 -0.033460326 -0.054108225 0.03710715 -0.05109486
-0.03899044 -0.08890983 -0.033189792 0.010710595 -0.067363024 -0.020624397 -0.06094706 0.010108046
0.049661756 -0.07004573 -0.046056964 -0.0078353165 -0.046299003 -0.04067602 0.05474452 -0.013879628
0.03538552 -0.0034562622 0.001772141 -0.06657092 -0.001872065 0.09878558 0.102190904 0.076351605
-0.030752815 -0.0039473455 0.098353505 -0.017635852 0.025515549 0.002111255 0.0754734 -0.055317782
0.024825018 -0.09693526 -0.022170098 0.044392258 0.013958186 0.10519391 -0.08637074 0.04161977
0.0006248728 0.09760162 0.090872794 0.08204694 -0.07573074 0.11062433 -0.073683254 -0.06413665
0.071310245 -0.010012135 0.043005783 0.08308809 -0.006912051 0.03402441 0.010841156 0.062767565
0.06337688 0.009147951 -0.08999938 0.025172912 0.072789446 -0.00054482993 0.04399333 0.035632197
-0.05557191 -0.045725066 -0.015829928 -0.08226057 0.007212921 -0.035890024 -0.07707108 0.022577139
0.020196253 0.04777642 -0.009523325 -0.02729111 -0.027247861 -0.09550349 0.0088169435 0.047111887
0.013321904 0.019955987 0.1000461 0.08036498 0.10582878 0.07985106 0.047998432 0.0045467303
-0.1154888 0.007940894 0.07040717 -0.00654171 0.06545765 -0.09013354 0.010818385 0.100382
-0.105875835 -0.00774924 0.058304094 -0.09381629 -0.049056087 -0.05153111 0.08087917 -0.009070769
-0.0042014075 0.08607835 0.03329974 -0.04402186 0.039099596 -0.05598966 0.10023989 -0.020757455
0.08675216 -0.042950302 0.06539911 0.10564464 -0.0471105 -0.016057191 -0.061654396 0.06718761
-0.031015076 0.07466758 -0.07810054 -0.030134339 -0.023646692 0.078730054 0.05129684 -0.0029168334
0.0474005 -0.08579928 -0.020397577 0.08688326 -0.0153892 -0.055438627 -0.059152924 0.09324994
0.0014597068 0.033573058 -0.040637765 0.041529913 -0.0118986815 0.0974252 0.06353353 -0.10253636
0.095155366 -0.06269742 -0.028921304 0.0051244125 -0.07162014 0.0035342213 -0.06423501 -0.02546895
-0.008969892 -0.009440194 0.02977704 -0.043346643 0.025694372 0.01212891 -0.04954568 -0.08838271
0.044929974 -0.07817561 0.0028587382 0.05867065 0.09175971 -0.06571674 0.09881061 -0.045778874
-0.049062137 0.006238678 -0.037532184 -0.052870348 0.038594045 0.081399746 0.07428387 0.049357463
00000000: 39d9 51bc a55e e63d 76eb 25bd 584f c63d
00000010: ecbb 323d 49d7 aa3d 5121 94bb ab13 a13d
00000020: 481e ebba 7496 ffbb 081d 5ebc 09fa 143d
00000030: a4e6 d23d b050 b43d 7c6d 5dbd 5bbb 3cbd
00000040: 8ee8 753d 3593 3dbd 0994 14bd fdb1 8d3c
00000050: 007c 8bbd f920 95bd 572b 9f3d c4f1 cfbd
00000060: caba 9abd c051 3e3d 08fe 86bc 3c4c 4b3d
00000070: 65e4 40bc e6b9 eb3b f682 ddbc e87d 273d
00000080: 759c ac3c 1fd7 9fbc 1645 923d 800a 85bd
00000090: 6204 00bd 870c 5c3c a426 763d c06b 25bd
000000a0: 3732 673c beff cebd 354b 473d 0284 8c3d
000000b0: b887 bfbd 1644 afbd 3550 9bbb e765 c83d
000000c0: d042 303d 87c8 a03d 960f c3bd 7717 973d
000000d0: fe10 d63d 061a aabd f624 c03c 2387 a9bc
000000e0: d949 e13d cff3 58bd dbb2 dabd 565c a9bd
000000f0: a2b7 b53d 654d 143d a41b d3bd 3002 c1bd
00000100: 5f19 7f3d 7ee1 4dbd e901 99bd ed41 52bd
00000110: 56f0 1bbd 32ce 84bd f115 3bbd 5521 973b
00000120: aaab 9a3c 83cc bd3d 78df bcbd 9535 e5bc
00000130: b20d 09bd 96a0 5dbd abfd 173d d848 51bd
00000140: 71b4 1fbd 5b16 b6bd 05f2 07bd 7e7b 2f3c
00000150: a0f5 89bd 7ff4 a8bc a0a3 79bd 389c 253c
00000160: 206a 4b3d 2374 8fbd 3aa6 3cbd b35f 00bc
00000170: 06a4 3dbd e69b 26bd ca3b 603d 6167 63bc
00000180: 68f0 103d 7582 62bb 2f47 e83a 5656 88bd
00000190: 1460 f5ba 1850 ca3d 7749 d13d 3b5e 9c3d
000001a0: 54ed fbbc bc58 81bb 906d c93d 1079 90bc
000001b0: fc05 d13c fb5c 0a3b cc91 9a3d e694 62bd
000001c0: d65d cb3c fe85 c6bd 119e b5bc a8d4 353d
000001d0: e0b0 643c e86f d73d 24e3 b0bd 7e79 2a3d
000001e0: 81ce 233a 5ce3 c73d 841b ba3d 3a08 a83d
000001f0: b818 9bbd 028f e23d 3fe7 96bd 135a 83bd
00000200: 1b0b 923d f009 24bc d526 303d 172a aa3d
00000210: 7c7e e2bb 2e5d 0b3d 1b9f 313c 488c 803d
00000220: bdcb 813d 4ae1 153c 9851 b8bd 6c37 ce3c
00000230: a212 953d ebd2 0eba 5a32 343d 11f3 113d
00000240: 5f9f 63bd 354a 3bbd c4ad 81bc 3b78 a8bd
00000250: 5e5a ec3b 6b01 13bd 71d7 9dbd b1f3 b83c
00000260: 9d72 a53c 35b1 433d b807 1cbc 9b91 dfbc
00000270: e836 dfbc 5597 c3bd f174 103c 65f8 403d
00000280: 1e44 5a3c bd7a a33c f8e4 cc3d 6596 a43d
00000290: c2bc d83d f488 a33d 019a 443d bdfc 943b
000002a0: 6485 ecbd 861a 023c a231 903d d75b d6bb
000002b0: a90e 863d ef97 b8bd 983f 313c 1495 cd3d
000002c0: 6ed5 d8bd 56ed fdbb 46d0 6e3d c122 c0bd
000002d0: 09ef 48bd 4912 53bd faa3 a53d 909d 14bc
000002e0: f6ab 89bb d949 b03d 4f65 083d 4450 34bd
000002f0: e626 203d 6a55 65bd 924a cd3d 8a0b aabc
00000300: 1eab b13d a8ec 2fbd f8ef 853d 385c d83d
00000310: f1f6 40bd 5f8a 83bc 5289 7cbd a899 893d
00000320: 5413 febc 51eb 983d 2df3 9fbd 4adc f6bc
00000330: b5b6 c1bc 393d a13d a31c 523d 5828 3fbb
00000340: 0727 423d 88b7 afbd d218 a7bc daef b13d
00000350: fc22 7cbc 9d13 63bd 564a 72bd d3f9 be3d
00000360: a253 bf3a e783 093d c973 26bd 451b 2a3d
00000370: b0f2 42bc dd86 c73d de1d 823d 95fe d1bd
00000380: d1e0 c23d 8167 80bd 5fec ecbc b0ea a73b
00000390: 94ad 92bd 659e 673b a58d 83bd 42a4 d0bc
000003a0: 74f6 12bc 0bab 1abc fbee f33c 408c 31bd
000003b0: 017d d23c 56b8 463c 69f0 4abd ff01 b5bd
000003c0: 7e08 383d 891a a0bd ab59 3b3b a350 703d
000003d0: 84ec bb3d 8096 86bd 385d ca3d a182 3bbd
000003e0: 61f5 48bd d36d cc3b 59bb 19bd 948e 58bd
000003f0: ca14 1e3d e9b4 a63d 2422 983d 0d2b 4a3d

encoder.cross_attn.in_proj_bias f4 [384]
0.00017044604 -0.0011950658 -0.0134491995 0.00017785927 -0.004508254 0.010256238 -0.0010405768 -0.0010586699
-0.0035677564 0.005763343 0.0035820997 0.017738296 0.013303558 0.0013989932 -0.0068430793 0.0049254126
-0.0076740514 -0.011004451 -0.00060626125 0.0038852945 0.00048609686 -0.006343775 0.010732823 -0.0057038446
0.0053552524 -0.0059425854 -0.0037882254 0.006889348 -0.0053825052 0.0023183245 0.007369332 0.0035502154
-0.004073455 -0.011184582 0.00070764817 0.011370125 0.010763572 0.014469611 0.009317893 -0.012728101
0.0078423405 -0.017282514 -0.011500581 0.009566488 -0.012188948 0.013901927 -0.008576142 0.00628411
0.0065442263 0.0025763572 -0.0145258615 -0.0044479 0.0067091547 -0.0041981777 0.0024552066 -0.013795113
0.003546545 -0.0102288285 0.008395894 0.0044544083 -0.009423103 -0.01178533 -0.014836673 0.017622752
-0.01982044 0.010753427 0.015353356 -0.015508632 -0.002393463 -0.010041133 0.01978296 -0.007071537
-0.0054130415 -0.0063195657 -0.0030489843 0.020528154 -0.00430244 -0.008837643 0.0024919056 0.022097528
0.0061172713 0.007258122 -0.021755392 0.0075088968 -0.010266179 -0.0047208 -0.00013034107 -0.020777633
-0.016821608 0.0075828666 -0.01619648 0.0027829895 0.010607292 0.012170499 -0.013151547 0.007174223
0.0029757966 0.0038417268 0.0021988845 0.00058854284 -0.003231661 0.0019976676 0.0063196337 0.0020079652
-0.0010899707 -0.0025808099 -0.0014818524 0.0035357827 0.0015220772 -0.0008782018 0.00013736676 0.004283099
0.007831758 -0.002879033 0.0005978871 5.5322198e-05 -0.0037762562 0.00014143484 0.0038853497 0.0011301636
0.0016309356 0.0056672334 -0.0010830457 0.0072757658 -0.0018806324 0.002591368 -0.0014685399 0.004803483
-1.4448258e-06 -5.4023894e-07 3.1620644e-08 -1.6215929e-06 2.093138e-06 9.791755e-07 -9.4855284e-07 1.6374902e-06
-1.004619e-06 1.6907921e-06 7.3927845e-07 -7.210674e-07 -3.4318163e-08 3.5031732e-07 -1.7952867e-06 2.9330668e-06
2.0048743e-07 -1.3742633e-06 -1.5182138e-06 -8.248473e-07 1.9185065e-06 3.0159774e-06 -2.8232932e-06 -8.97783e-07
-7.956859e-07 -2.438297e-06 -2.3681338e-07 1.4996402e-06 2.1431447e-06 -6.43987e-07 -2.408099e-06 3.223624e-06
-7.48361e-08 6.568229e-07 6.022114e-07 -1.4485414e-06 -5.339213e-07 -4.2363166e-07 -4.9898006e-07 3.8942278e-07
-7.627258e-08 2.8690414e-07 4.6069766e-07 -3.143781e-08 7.138273e-08 -2.1463632e-07 3.1532088e-07 6.792315e-08
-2.9142774e-07 -1.9371205e-07 7.0878605e-07 -4.2639587e-07 -4.003779e-07 -3.6399432e-09 -2.2107649e-08 9.568894e-07
-6.5598266e-07 7.628139e-07 2.2603359e-07 8.40133e-11 2.304872e-07 -8.1089036e-07 1.02196246e-07 -8.601246e-08
1.0973879e-07 1.5064657e-07 -1.2276209e-06 1.1383734e-06 -1.7552215e-06 -1.1068986e-06 -2.1297824e-06 2.7561136e-06
9.619414e-07 1.7354275e-06 3.1265313e-07 -1.4917148e-07 1.3718724e-06 -3.30261e-07 2.0217826e-07 3.83381e-07
-2.1942977e-07 -1.4196189e-06 2.6772278e-07 7.8658655e-07 2.171466e-06 1.7681048e-06 1.3838708e-06 9.168255e-07
3.3376375e-07 -1.8765917e-06 3.7622652e-07 1.0876155e-06 6.776125e-09 -1.0873191e-06 -4.6392512e-07 -1.480168e-06
8.091107e-07 1.9907584e-06 1.4463125e-06 1.0083612e-06 4.948421e-07 -2.0376585e-06 1.0260097e-06 -1.4222685e-06
-1.2075279e-06 -2.3569629e-07 -4.78868e-07 1.8062829e-06 -2.2344247e-07 5.466883e-07 1.3584846e-06 -4.9315013e-08
5.8708736e-07 -6.720325e-07 1.2443217e-06 3.5136875e-07 -1.1313373e-06 -6.534244e-07 1.233745e-06 -1.2997535e-06
-7.743969e-07 7.497153e-07 1.2419883e-07 2.606779e-07 1.8969554e-07 5.0190783e-07 9.666958e-07 2.1796166e-06
00000000: c3b9 3239 c1a3 9cba 085a 5cbc bc7f 3a39
00000010: fab9 93bb c809 283c f763 88ba 11c3 8aba
00000020: 05d1 69bb 6dda bc3b a9c1 6a3b e74f 913c
00000030: 2bf7 593c 6c5e b73a e93b e0bb 5b65 a13b
00000040: 9c76 fbbb 034c 34bc 81ed 1eba 6da0 7e3b
00000050: d1da fe39 71df cfbb b9d8 2f3c 51e7 babb
00000060: 1d7b af3b 05ba c2bb e043 78bb 0ac0 e13b
00000070: ba5f b0bb 08ef 173b 707a f13b bbaa 683b
00000080: 9e7a 85bb 893f 37bc 7781 393a c349 3a3c
00000090: b159 303c f311 6d3c 13aa 183c 8689 50bc
000000a0: 297d 003c 0f94 8dbc ef6c 3cbc c2bc 1c3c
000000b0: 27b4 47bc e8c4 633c f282 0cbc efea cd3b
000000c0: f370 d63b 1ad8 283b e1fd 6dbc b1bf 91bb
000000d0: 78d8 db3b de90 89bb 88e7 203b e604 62bc
000000e0: 276d 683b d196 27bc ef8e 093c 49f6 913b
000000f0: 5c63 1abc 4217 41bc 8415 73bc 975d 903c
00000100: 7a5e a2bc 242f 303c a48c 7b3c eb17 7ebc
00000110: a5db 1cbb 9083 24bc e00f a23c 5ab8 e7bb
00000120: e25f b1bb 5c14 cfbb 78d1 47bb a92a a83c
00000130: 7cfb 8cbb c3cb 10bc 3d4f 233b e005 b53c
00000140: 6473 c83b 8ad5 ed3b 5d38 b2bc 310d f63b
00000150: 7a33 28bc f1b0 9abb 2aac 08b9 db35 aabc
00000160: 78cd 89bc b279 f83b 7bae 84bc d162 363b
00000170: 35ca 2d3c c666 473c 9679 57bc bf15 eb3b
00000180: 9505 433b 7bc5 7b3b 291b 103b 7148 1a3a
00000190: 46ca 53bb 4deb 023b ee14 cf3b 1198 033b
000001a0: 59dd 8eba ce22 29bb b73a c2ba 97b8 673b
000001b0: 7080 c73a 2037 66ba 1c0a 1039 3d59 8c3b
000001c0: c650 003c 29ae 3cbb 86bb 1c3a c209 6838
000001d0: 117b 77bb 204e 1439 5aa1 7e3b ff21 943a
000001e0: 1ec5 d53a 33b4 b93b fcf4 8dba 8c69 ee3b
000001f0: 8d7f f6ba f1d3 293b 067c c0ba 8966 9d3b
00000200: d6eb c1b5 f004 11b5 44cf 0733 82a5 d9b5
00000210: d677 0c36 376c 8335 0ea0 7eb5 bcc7 db35
00000220: 72d6 86b5 2def e235 d472 4635 608f 41b5
00000230: 3865 13b3 3f13 bc34 95f5 f0b5 b4d5 4436
00000240: 9145 5734 5473 b8b5 6ec5 cbb5 136b 5db5
00000250: b1bf 0036 1966 4a36 cf77 3db6 2eff 70b5
00000260: 1e97 55b5 a0a1 23b6 c446 7eb4 3f47 c935
00000270: f2d2 0f36 73de 2cb5 d39a 21b6 7055 5836
00000280: 95b5 a0b3 8750 3035 a7a7 2135 816b c2b5
00000290: cb52 0fb5 7e6f e3b4 a6f1 05b5 dc11 d134
000002a0: 4bcb a3b3 ce07 9a34 ce55 f734 3d06 07b3
000002b0: 124b 9933 c876 66b4 5f49 a934 26dd 9133
000002c0: 8675 9cb4 2aff 4fb4 6843 3e35 67eb e4b4
000002d0: 85f3 d6b4 8f22 7ab1 3ce7 bdb2 786e 8035
000002e0: c916 30b5 2cc4 4c35 a4b3 7234 49bf b82e
000002f0: d77b 7734 f6ab 59b5 fb76 db33 dab5 b8b3
00000300: 8aa9 eb33 6ac1 2134 bcc4 a4b5 36ca 9835
00000310: f494 ebb5 bf90 94b5 62ed 0eb6 acf5 3836
00000320: 0e1c 8135 d6ec e835 b8da a734 f22b 20b4
00000330: 2d21 b835 ba4e b1b4 5616 5934 7cd3 cd34
00000340: 659c 6bb4 bc89 beb5 8abb 8f34 d125 5335
00000350: 80b9 1136 9e4f ed35 70bd b935 c51b 7635
00000360: 2430 b334 33df fbb5 2efc c934 2ffa 9135
00000370: 6dd3 e831 00f0 91b5 6211 f9b4 2faa c6b5
00000380: aa31 5935 f898 0536 eb1e c235 0757 8735
00000390: 4ad5 0435 b5be 08b6 6db5 8935 c6e4 beb5
000003a0: 5812 a2b5 b413 7db4 8f8b 00b5 686f f235
000003b0: 66eb 6fb4 22c0 1235 2d55 b635 6ece 53b3
000003c0: 5698 1d35 b965 34b5 9102 a735 c1a3 bc34
000003d0: 74d8 97b5 fc66 2fb5 2897 a535 3173 aeb5
000003e0: 26e0 4fb5 0b40 4935 845b 0534 4cf3 8b34
000003f0: 1daf 4b34 d8ba 0635 6abf 8135 8745 1236

encoder.cross_attn.out_proj.weight f4 [128, 128]
0.0668565 0.017364973 0.057909396 -0.014409998 -0.074785605 0.06278502 0.034341857 0.06914176
0.031302396 -0.0044176807 -0.0726204 -0.08427586 0.018366767 0.070649736 0.00066542305 -0.022678453
0.038194522 -0.0302537 0.03142702 -0.06664946 -0.08613533 -0.057820573 -0.021535404 0.046102233
0.034026112 -0.066580355 -0.01322182 0.023753813 -0.025145922 -0.001300258 0.05513656 -0.027724098
0.053026848 0.072555564 0.036838885 -0.014594275 -0.05953911 -0.060398947 -0.009270465 0.02601746
0.04546451 -0.01360971 0.06382614 -0.027216975 0.016445937 -0.04588763 0.019592034 0.076974146
0.04476614 0.002242688 -0.03384796 -0.065301806 -0.047242176 -0.082189046 0.053262886 -0.03378935
-0.020457264 -0.07217458 -0.020796835 0.08067653 0.009833887 -0.024068238 0.036589865 0.06542748
0.07580326 -0.06855726 -5.1764662e-05 -0.07169136 -0.070505075 0.058441292 -0.06839989 -0.036202926
0.047025636 0.089587085 -0.093756765 -0.056339018 -0.033690248 0.06730373 0.052496336 0.06762355
0.06554549 -0.014534767 0.053487126 -0.009488107 0.01321997 -0.016304756 0.03871795 0.039687913
-0.0065808836 0.069007866 -0.02653013 0.016350184 0.07990373 0.044666838 -0.028420076 -0.038060084
0.032200135 -0.0015541285 0.0071647735 0.05038656 0.02280578 -0.04288456 -0.07016237 0.08729017
-0.012959192 -0.032784544 -0.058318865 0.09203835 0.048119288 -0.053825844 -0.062258154 0.06846615
0.03351286 9.4138835e-05 -0.073239274 0.05781203 -0.05862672 0.048171043 -0.08460089 -0.06992651
-0.09281062 0.085247174 0.081688754 -0.07837278 0.07099703 -0.05189153 -0.08264332 0.03602554
0.044446632 0.05255444 0.016482415 0.10106301 -0.069832906 0.056182493 -0.03004981 0.00053483254
0.056904607 -0.06744086 0.025762115 -0.012174067 0.056497842 -0.0015799442 0.051878408 0.08865836
-0.036528174 -0.066444166 0.079496086 -0.043837517 0.019477896 0.06255892 -0.020119676 0.0901058
0.048386555 -0.028136354 0.027925704 -0.0010630178 0.08410802 0.05439821 -0.050731312 0.0069495235
0.057325423 0.06974408 0.028553316 0.0377879 -0.01814075 0.0003244229 -0.05614446 0.07501467
0.06961113 -0.057196118 -0.08394597 0.075343974 -0.07453373 0.05640514 -0.08772406 -0.04360926
-0.0273024 0.080509044 -0.016661128 0.078259744 0.035671737 0.08026209 0.05120531 0.07082508
0.06548948 -0.017652255 -0.022010464 0.033537406 0.07069161 -0.043021217 -0.07804969 -0.06762948
-0.033311665 0.0077773384 -0.017052956 -0.024526447 -0.05206287 0.01871004 -0.06636806 0.092157036
-0.007567218 0.020089982 0.019226035 -0.030993365 0.07118706 -0.002630292 0.008691281 -0.080467135
0.022038808 0.03508758 -0.0015948873 -0.011576619 0.07011094 0.0752527 0.062235735 -0.01330664
0.01767009 -0.06926709 -0.06904899 -0.020766104 0.0105065545 -0.053142663 -0.07313408 0.043041535
0.042216055 -0.050088827 0.061769128 -0.07120007 0.06363442 0.05483518 -0.032333672 0.088815816
-0.052796442 -0.038172275 0.08002965 -0.013344328 -0.031219106 0.016231015 -0.003186156 0.045678884
0.06564618 0.054713972 0.018876212 0.027979223 -0.0017937871 0.01567669 -0.0005112339 0.07045404
0.038535837 -0.003795944 0.037187446 0.0017605884 0.031069458 0.07554307 -0.0592931 0.011021353
00000000: 10ec 883d fd40 8e3c 6732 6d3d ea17 6cbc
00000010: 3229 99bd 6f95 803d 0caa 0c3d 329a 8d3d
00000020: f136 003d 31c2 90bb 01ba 94bd d298 acbd
00000030: e775 963c cfb0 903d c96f 2e3a 2ac8 b9bc
00000040: dc71 1c3d 9cd6 f7bc 9eb9 003d 837f 88bd
00000050: b867 b0bd 44d5 6cbd 046b b0bc b2d5 3c3d
00000060: f75e 0b3d 485b 88bd 55a0 58bc 5b97 c23c
00000070: d2fe cdbc 6b6d aaba e0d6 613d a61d e3bc
00000080: ae32 593d 0398 943d 5fe4 163d d31c 6fbc
00000090: 48df 73bd e364 77bd 26e3 17bc 9122 d53c
000000a0: fe38 3a3d 43fb 5ebc 47b7 823d 22f6 debc
000000b0: a1b9 863c abf4 3bbd 797f a03c 9fa4 9d3d
000000c0: b35c 373d 10fa 123b 29a4 0abd f4bc 85bd
000000d0: 0381 41bd bb52 a8bd 2f2a 5a3d b466 0abd
000000e0: fe95 a7bc 44d0 93bd 205e aabc bd39 a53d
000000f0: 501e 213c c12a c5bc 41df 153d d8fe 853d
00000100: bd3e 9b3d c067 8cbd e21d 59b8 ebd2 92bd
00000110: f764 90bd 2360 6f3d 3e15 8cbd 8549 14bd
00000120: f49d 403d 6f79 b73d 8c03 c0bd bec3 66bd
00000130: c9fe 09bd 8ad6 893d 6606 573d 377e 8a3d
00000140: b73c 863d 3b23 6ebc 5115 5b3d 0174 1bbc
00000150: 9398 583c 8d91 85bc b796 1e3d cb8f 223d
00000160: 74a4 d7bb ff53 8d3d b755 d9bc d2f0 853c
00000170: 91a4 a33d 93f4 363d 38d1 e8bc e4e4 1bbd
00000180: 4ae4 033d e6b3 cbba 7ac6 ea3b 2362 4e3d
00000190: 30d3 ba3c b8a7 2fbd 4ab1 8fbd 30c5 b23d
000001a0: ca52 54bc 1649 06bd c3df 6ebd 9a7e bc3d
000001b0: bb18 453d 7d78 5cbd 6802 7fbd fb37 8c3d
000001c0: c844 093d 676c c538 79fe 95bd 4fcc 6c3d
000001d0: 9222 70bd 004f 453d 3b43 adbd a135 8fbd
000001e0: 7f13 bebd 1296 ae3d 6f4c a73d e881 a0bd
000001f0: e466 913d 378c 54bd e740 a9bd 848f 133d
00000200: ac0d 363d 5343 573d 2106 873c 20fa ce3d
00000210: 8e04 8fbd 9d1f 663d 052b f6bc 0134 0c3a
00000220: ce14 693d 6f1e 8abd 120b d33c bd75 47bc
00000230: 486a 673d 2116 cfba 747e 543d 8492 b53d
00000240: 919e 15bd e113 88bd d8ce a23d f88e 33bd
00000250: 1c90 9f3c e41e 803d 05d2 a4bc 6489 b83d
00000260: fb30 463d 367e e6bc 72c4 e43c f554 8bba
00000270: d340 ac3d a8d0 5e3d a3cb 4fbd d4b8 e33b
00000280: 10ce 6a3d fcd5 8e3d a5e8 e93c 7cc7 1a3d
00000290: e99b 94bc 4e17 aa39 bcf7 65bd 4ba1 993d
000002a0: 4890 8e3d 7a46 6abd ddeb abbd f14d 9a3d
000002b0: 24a5 98bd 1309 673d aca8 b3bd a09f 32bd
000002c0: 48a9 dfbc ede1 a43d eb7c 88bc a546 a03d
000002d0: 871c 123d 7360 a43d a9bc 513d bd0c 913d
000002e0: 591f 863d 769b 90bc 4a4f b4bc 855e 093d
000002f0: c3c6 903d 0437 30bd 84d8 9fbd 5381 8abd
00000300: d071 08bd 0bd9 fe3b a4b2 8bbc b0eb c8bc
00000310: e03f 55bd cc45 993c faeb 87bd d4bc bc3d
00000320: 6df6 f7bb bf93 a43c eb7f 9d3c cce5 fdbc
00000330: 85ca 913d fa60 2cbb e065 0e3c f4cb a4bd
00000340: bb8a b43c ffb7 0f3d 8a0b d1ba dcab 3dbc
00000350: 5396 8f3d 161e 9a3d e6ea 7e3d 1804 5abc
00000360: ddc0 903c e7db 8dbd 8f69 8dbd ad1d aabc
00000370: af23 2c3c 1fac 59bd 52c7 95bd 524c 303d
00000380: beea 2c3d f129 4dbd a001 7d3d 58d1 91bd
00000390: c352 823d db9a 603d 5070 04bd 11e5 b53d
000003a0: 1541 58bd 885a 1cbd 96e6 a33d 2ba2 5abc
000003b0: 36bf ffbc e8f6 843c d4ce 50bb c819 3b3d
000003c0: 8171 863d c21b 603d 49a2 9a3c af34 e53c
000003d0: 821d ebba 676c 803c 5404 06ba 354a 903d
000003e0: c1d7 1d3d 5fc5 78bb dd51 183d 8bc3 e63a
000003f0: 6085 fe3c 53b6 9a3d 52dd 72bd e892 343c
